week4 mtcnn face detection/Step1-face detection/weights/ONet.pth (torch_old, 901064 bytes, 15 tensors)

pre_layer.0.weight f4 [32, 3, 3, 3]
-0.04091571 -0.060334332 -0.08723512 -0.043025464 0.0672436 0.16663271 0.13724007 0.14992009
0.073634416 -0.17027786 -0.24122895 -0.13699092 -0.13863376 -0.0075418116 0.09521501 -0.07379335
-0.03995876 -0.0116334 -0.15238799 -0.14951125 -0.04997227 0.024864163 0.062434543 0.23665802
0.08526024 0.10732335 0.12368866 -0.099715985 -0.015603628 0.035582624 -0.17167391 0.11429882
0.18948889 -0.05977212 -0.111444876 0.19394997 -0.20638014 0.049478292 0.19071569 -0.19923815
0.056366444 0.219199 -0.2013314 0.018027931 0.09358478 -0.05851546 0.075051896 0.12104018
-0.15354952 0.077767186 0.0586935 -0.14126915 -0.12267202 0.048278503 -0.15039933 -0.11322541
0.015414013 -0.119310945 0.022469318 -0.103745624 0.077514336 -0.055083547 0.12777065 -0.042728733
-0.0611495 -0.14986458 -0.010745018 0.08572043 -0.07195722 0.16368663 -0.08257699 -0.08029218
0.011447782 -0.10653916 -0.16105461 0.04989849 0.016797243 0.11181131 0.17749538 0.16556807
0.14790711 0.08068608 0.025217803 -0.15872306 0.02323056 -0.049286414 -0.07382792 0.035981882
0.02931996 0.040037178 0.035949767 0.07475887 -0.061064515 0.28681117 -0.117141955 -0.1606744
-0.029235955 -0.05011255 -0.1694956 0.19513942 -0.08830378 -0.18922606 0.28477302 -0.009996374
-0.103214 0.23130678 -0.097777724 -0.042995624 -0.17195489 0.074519984 0.07015899 -0.10016589
-0.091526814 0.025545424 -0.0662119 -0.024098335 0.14178221 -0.07021509 -0.10515404 -0.06143923
-0.0992949 -0.0107997265 0.016510325 0.118960574 0.036542036 0.07568861 -0.14861503 -0.13878706
-0.18467762 -0.047788072 0.07932614 -0.072510146 0.07888044 0.17643766 0.21552193 -0.08340299
-0.046473935 -0.07957493 -0.105677836 -0.11036688 0.022455387 0.103348956 0.109361656 0.103258625
0.0684352 0.09180791 -0.10051444 0.016622359 0.13048548 -0.009759663 0.032804977 0.13421902
0.03163334 -0.16499658 -0.0047557345 -0.07546028 0.05298687 -0.16615102 -0.11553998 -0.01746642
-0.05289387 0.009379513 -0.11728631 0.065311715 0.022541102 0.075762756 0.037983526 -0.04340165
0.011127905 -0.010773459 0.12365787 -0.04300148 0.0036950028 -0.06071371 -0.213237 -0.13648887
-0.13868786 0.030576855 -0.12919867 -0.067169875 0.16834341 -0.0112233255 -0.0030298415 0.007944461
-0.0016126576 0.05961866 0.045646537 0.16560733 0.031839576 -0.09396731 -0.09375693 0.0039368463
0.16080037 -0.09816917 -0.08790248 -0.0314689 -0.09158066 -0.10613217 0.018338006 -0.038970657
-0.058323774 0.05067477 0.08739524 0.01764557 -0.047954418 -0.025734866 -0.053729627 0.15395299
-0.07576555 -0.017653165 0.09279017 0.06824544 0.04399302 -0.059882626 0.15796572 -0.07343767
0.07849926 0.12622699 0.19064565 -0.20876355 0.025228143 -0.13749301 -0.16750869 -0.14531647
0.03048535 2.9912228e-05 0.15176676 0.033304688 -0.16705503 -0.20127031 0.085601866 -0.0017954234
0.016497206 -0.007274763 0.16462468 0.18106724 0.17777927 -0.15216163 -0.01714512 -0.089139245
0.102689125 -0.00028433025 -0.046108484 0.03916111 0.05945844 -0.089222655 -0.07463997 -0.12552853
0.10045786 -0.11381398 -0.032453746 0.05250046 -0.09031973 0.14462392 -0.11265362 -0.050458364
00000000: 3b97 27bd 2221 77bd 54a8 b2bd 783b 30bd
00000010: 03b7 893d c4a1 2a3e a988 0c3e a784 193e
00000020: a4cd 963d 525d 2ebe b904 77be 5947 0cbe
00000030: 02f6 0dbe 4d21 f7bb 1600 c33d f820 97bd
00000040: ccab 23bd 049a 3ebc 990b 1cbe 7a19 19be
00000050: b9af 4cbd eeaf cb3c 5dbb 7f3d 7b56 723e
00000060: ec9c ae3d 58cc db3d 7b50 fd3d e537 ccbd
00000070: 5ca6 7fbc 16bf 113d 49cb 2fbe 8015 ea3d
00000080: 6009 423e 9cd3 74bd 363d e4bd d29a 463e
00000090: 5155 53be c0a9 4a3d f94a 433e 1605 4cbe
000000a0: 80e0 663d b475 603e d229 4ebe 50af 933c
000000b0: 61a9 bf3d e8ad 6fbd cfb4 993d eae3 f73d
000000c0: 163c 1dbe 6744 9f3d 9868 703d dca8 10be
000000d0: 783b fbbd aebf 453d 4802 1abe b9e2 e7bd
000000e0: 0e8b 7c3c 4c59 f4bd 9311 b83c 9678 d4bd
000000f0: d6bf 9e3d 499f 61bd 4fd6 023e 5304 2fbd
00000100: e677 7abd 1a76 19be df0b 30bc 318e af3d
00000110: 4f5e 93bd 789d 273e 201e a9bd 3a70 a4bd
00000120: 7a8f 3b3c 3431 dabd 80eb 24be 5c62 4c3d
00000130: 5f9a 893c 54fd e43d 59c1 353e ad8a 293e
00000140: f674 173e be3e a53d 9195 ce3c 4c88 22be
00000150: 044e be3c 8de0 49bd 1833 97bd bd61 133d
00000160: 6a30 f03c 06fe 233d 1040 133d 2e1b 993d
00000170: c91e 7abd ead8 923e 1fe8 efbd d487 24be
00000180: 3e80 efbc d142 4dbd 4190 2dbe a1d2 473e
00000190: 9dd8 b4bd 7ac4 41be c5cd 913e d5c7 23bc
000001a0: dd61 d3bd afdb 6c3e b03f c8bd 2e1c 30bd
000001b0: f114 30be ef9d 983d 84af 8f3d c623 cdbd
000001c0: 6972 bbbd a344 d13c 1b9a 87bd df69 c5bc
000001d0: 5b2f 113e eecc 8fbd 005b d7bd b4a7 7bbd
000001e0: 205b cbbd 56f1 30bc a940 873c 9aa1 f33d
000001f0: 1aad 153d a102 9b3d 8a2e 18be 321e 0ebe
00000200: 211c 3dbe 6dbd 43bd be75 a23d 3380 94bd
00000210: 118c a13d 13ac 343e c8b1 5c3e 30cf aabd
00000220: 745b 3ebd 2ef8 a2bd 9f6d d8bd 0808 e2bd
00000230: 5cf4 b73c 9ea8 d33d 01f9 df3d 4279 d33d
00000240: c127 8c3d c905 bc3d 84da cdbd 9d2b 883c
00000250: fc9d 053e fee6 1fbc 835e 063d b670 093e
00000260: f691 013d ddf4 28be fed5 9bbb eb8a 9abd
00000270: c308 593d 7e23 2abe 3aa0 ecbd bd15 8fbc
00000280: 3ea7 58bd 87ac 193c ce33 f0bd 26c2 853d
00000290: 1ea8 b83c 8129 9b3d 9d94 1b3d eec5 31bd
000002a0: d151 363c 2a83 30bc 5640 fd3d 5222 30bd
000002b0: dc27 723b f0ae 78bd cd5a 5abe bdc3 0bbe
000002c0: 3104 0ebe 507c fa3c a84c 04be 5c90 89bd
000002d0: 3762 2c3e 0ae2 37bc 4e90 46bb 7c29 023c
000002e0: cf5f d3ba b232 743d ddf7 3a3d f894 293e
000002f0: 376a 023d ef71 c0bd a203 c0bd a900 813b
00000300: daa8 243e eb0c c9bd 3706 b4bd 89e5 00bd
00000310: a48e bbbd d35b d9bd 9639 963c b29f 1fbd
00000320: e9e4 6ebd 5990 4f3d 47fc b23d 718d 903c
00000330: da6b 44bd edd1 d2bc 9913 5cbd daa5 1d3e
00000340: f82a 9bbd 5f9d 90bc c608 be3d 44c4 8b3d
00000350: 0632 343d 7c47 75bd c4c1 213e 7d66 96bd
00000360: 38c4 a03d a641 013e 9d38 433e 1dc6 55be
00000370: 40ab ce3c f8ca 0cbe 6687 2bbe d7cd 14be
00000380: 6abc f93c 05ec fa37 bf68 1b3e 7f6a 083d
00000390: 7910 2bbe ce19 4ebe 0850 af3d 6a54 ebba
000003a0: 2625 873c 2361 eebb 5f93 283e b169 393e
000003b0: c50b 363e 42d0 1bbe ec73 8cbc a38e b6bd
000003c0: ad4e d23d 2912 95b9 40dc 3cbd 6667 203d
000003d0: b18a 733d 5eba b6bd d7dc 98bd 8d8a 00be
000003e0: dabc cd3d 4e17 e9bd 38ee 04bd b90a 573d
000003f0: 8df9 b8bd 4b18 143e f1b6 e6bd 6ead 4ebd

pre_layer.0.bias f4 [32]
0.016557587 -0.00583469 0.061166324 0.01310798 0.056511294 0.023362724 0.027145846 0.095440306
0.064255916 0.03879944 0.025856057 0.040109113 0.06776473 0.040247716 0.057541683 0.023233483
0.024977839 0.09070538 0.029229349 0.03729343 0.06591624 0.0235877 0.074586876 0.049468603
0.007947123 0.09249091 0.08570446 0.060909547 0.090647526 0.079726145 0.020056633 0.008774911
00000000: c7a3 873c ed30 bfbb 8a89 7a3d dac2 563c
00000010: 6378 673d 2f63 bf3c f760 de3c 3576 c33d
00000020: 9b98 833d 29ec 1e3d 15d0 d33c 7449 243d
00000030: 3cc8 8a3d cada 243d d4b0 6b3d 2554 be3c
00000040: 539e cc3c bec3 b93d 6372 ef3c ffc0 183d
00000050: 18ff 863d fe3a c13c 01c1 983d 979f 4a3d
00000060: a634 023c e06b bd3d d285 af3d 4a7c 793d
00000070: 69a5 b93d 7647 a33d cf4d a43c a5c4 0f3c

pre_layer.3.weight f4 [64, 32, 3, 3]
-0.06714399 -0.062674746 0.042295814 -0.01875716 -0.029203724 -0.07605639 0.015335904 -0.030575978
-0.0047842856 -0.059668973 -0.02747081 0.10678809 0.0004148656 -0.048439186 0.13166699 0.0912817
0.09195864 0.15893081 -0.14842781 0.07178313 -0.016948357 -0.13501947 -0.015229788 0.05926789
-0.1455586 -0.07254816 0.049512934 -0.2218632 -0.078864686 0.030931538 -0.040303614 0.07300927
-0.106967464 0.050907504 0.1042992 -0.0039935973 -0.058734212 -0.053493675 -0.06885214 -0.0062485817
-0.05676448 0.010025652 -0.095126994 -0.13991994 -0.07112083 0.0009554966 -0.08126013 -0.041791886
-0.02786173 -0.09796958 -0.0387928 0.07297148 -0.043078944 0.010760817 -0.010874638 -0.008849088
-0.08164423 -0.07520235 0.047348928 -0.06280119 -0.083120726 0.055444323 -0.033592556 0.0054147034
0.018530414 -0.023713088 0.03394924 0.08797661 -0.008833692 0.06813886 -0.03460341 0.037757434
-0.023904229 0.04735761 0.09687624 -0.07096574 0.03466831 -0.021454196 -0.15270261 -0.09725038
-0.020949489 0.048984393 -0.064687446 0.11222304 -0.012681119 0.013577797 0.07075625 0.024526821
0.076048724 0.011405121 0.0329619 0.097795986 0.060939945 -0.0883409 0.072051 0.016586293
-0.044976402 0.057797983 0.044784077 -0.08007939 -0.05301085 -0.05055236 -0.025841001 -0.042848542
0.019552894 -0.021960834 -0.03596185 -0.0053657084 -0.038509432 0.015782991 -0.05640554 0.03538584
0.05766071 0.08199689 0.009067389 0.12410045 0.10457487 -0.02924962 -0.046910573 -0.022524362
-0.11467824 -0.1427144 -0.017620979 -0.10356132 -0.009923807 -0.02231153 -0.05548504 0.03986917
0.17926663 0.016860742 0.050778314 0.15161647 0.016529966 -0.027135398 0.036590025 -0.035911363
0.016949693 -0.060957145 0.031188376 -0.057136077 -0.03853954 0.0046924856 -0.010837915 0.041418966
-0.012165825 0.01858873 -0.049771752 -0.08689751 -0.027984422 -0.059929326 0.1481681 0.16267312
0.0572553 -0.051479038 0.04134919 0.03338163 0.05470375 -0.015491229 -0.016790183 0.047658503
-0.008116858 0.008082536 -0.14690204 -0.09367137 -0.09340413 -0.20245136 0.049766418 -0.03579248
-0.03835894 -0.01885092 -0.05524867 0.031930044 0.105930775 0.096560694 -0.034942415 0.06331269
0.022165935 0.078265436 0.09558765 0.015647044 0.045386646 0.081804916 0.07037096 0.016096717
0.041685876 0.04259709 0.15275665 0.0034187865 0.15386336 -0.077656284 -0.036363263 0.062226124
-0.11452431 0.04638337 -0.021125339 -0.06929713 0.055633333 -0.046186425 -0.027352866 -0.06459176
-0.009289356 0.05618288 -0.041691255 -0.089012206 -0.004756989 0.12547868 0.13315198 -0.037541296
0.07055407 0.002142926 -0.060569156 0.07260561 0.047785636 -0.059833832 -0.09254597 0.020415481
0.039025787 -0.019336216 0.0373962 -0.0155815575 0.034691703 0.09135653 -0.040960196 0.08939481
0.13984853 -0.12235367 0.07695646 0.033705354 -0.023987789 0.020282693 0.038839903 -0.05808402
-0.059588112 -0.050409064 -0.0062771877 -0.020846648 0.041252192 -0.006228019 0.06686779 -0.06065307
0.03300029 0.0842753 0.08490519 -0.06286485 0.0028748896 0.06400273 0.019888435 -0.022644646
-0.07827089 0.062229972 0.027156608 0.05266571 -0.056428827 0.009521216 -0.03456036 0.04094665
00000000: ca82 89bd 9e5b 80bd 603e 2d3d 9ea8 99bc
00000010: a63c efbc 74c3 9bbd 7243 7b3c 797a fabc
00000020: 7fc5 9cbb 7467 74bd 770a e1bc b7b3 da3d
00000030: 5182 d939 2b68 46bd b6d3 063e e6f1 ba3d
00000040: d054 bc3d c2be 223e 76fd 17be 0903 933d
00000050: 48d7 8abc 8b42 0abe 5c86 79bc e3c2 723d
00000060: 500d 15be 2194 94bd 13ce 4a3d 1b30 63be
00000070: cf83 a1bd 2364 fd3c 6715 25bd e285 953d
00000080: c211 dbbd 6384 503d d29a d53d b9dc 82bb
00000090: 4993 70bd 2f1c 5bbd 5a02 8dbd e7c0 ccbb
000000a0: df81 68bd a242 243c f1d1 c2bd 2c47 0fbe
000000b0: cca7 91bd 4b7a 7a3a b66b a6bd f82d 2bbd
000000c0: 483e e4bc 46a4 c8bd 33e5 1ebd 1272 953d
000000d0: 8c73 30bd 234e 303c 8a2b 32bc c4fb 10bc
000000e0: 1735 a7bd b103 9abd f3f0 413d e99d 80bd
000000f0: 333b aabd 9619 633d 5998 09bd d36d b13b
00000100: 18cd 973c f341 c2bc 5c0e 0b3d 152d b43d
00000110: 31bb 10bc 638c 8b3d 4ebc 0dbd 8aa7 1a3d
00000120: cdd2 c3bc 0efa 413d 0d67 c63d 7c56 91bd
00000130: 5c00 0e3d b6c0 afbc 135e 1cbe 352b c7bd
00000140: 439e abbc dca3 483d da7a 84bd 31d5 e53d
00000150: 78c4 4fbc 6975 5e3c a7e8 903d 79ec c83c
00000160: 6fbf 9b3d 8bdc 3a3c 0f03 073d 4349 c83d
00000170: 2a9c 793d 13ec b4bd 7a8f 933d fadf 873c
00000180: 2d39 38bd 94bd 6c3d 826f 373d aa00 a4bd
00000190: e821 59bd fe0f 4fbd 82b0 d3bc f481 2fbd
000001a0: 642d a03c 35e7 b3bc bc4c 13bd d3d2 afbb
000001b0: 11bc 1dbd 554b 813c 7f09 67bd bef0 103d
000001c0: a32d 6c3d fced a73d 638f 143c 6028 fe3d
000001d0: 592b d63d e69c efbc 4d25 40bd 0385 b8bc
000001e0: 6ddc eabd b923 12be df59 90bc f517 d4bd
000001f0: 7797 22bc abc6 b6bc 4844 63bd db4d 233d
00000200: ac91 373e 8a1f 8a3c ecfc 4f3d 5941 1b3e
00000210: da69 873c 0e4b debc 6cdf 153d cb17 13bd
00000220: 15da 8a3c 33ae 79bd c47e ff3c 8507 6abd
00000230: a3db 1dbd 6cc3 993b 8391 31bc efa6 293d
00000240: 2b53 47bc 6447 983c 77dd 4bbd 52f7 b1bd
00000250: 963f e5bc 7478 75bd 61b9 173e c893 263e
00000260: 8984 6a3d afdb 52bd c55d 293d 2dbb 083d
00000270: 0a11 603d ecce 7dbc 918b 89bc 9035 433d
00000280: 92fc 04bc 9d6c 043c 7d6d 16be c6d6 bfbd
00000290: aa4a bfbd 694f 4fbe dfd7 4b3d 239b 12bd
000002a0: 441e 1dbd 3f6d 9abc 6e4c 62bd 14c9 023d
000002b0: 3cf2 d83d 9dc1 c53d c71f 0fbd 15aa 813d
000002c0: 5695 b53c a149 a03d 75c3 c33d 3b2e 803c
000002d0: 59e7 393d 5689 a73d a61e 903d 43dd 833c
000002e0: cfbe 2a3d 497a 2e3d 3d6c 1c3e b80d 603b
000002f0: 5b8e 1d3e 420a 9fbd a5f1 14bd d2e0 7e3d
00000300: b98b eabd 7dfc 3d3d 0c0f adbc a7eb 8dbd
00000310: c7df 633d fa2d 3dbd 1e13 e0bc af48 84bd
00000320: 6232 18bc 0520 663d 73c4 2abd 084c b6bd
00000330: 84e0 9bbb 7c7d 003e fe58 083e e7c4 19bd
00000340: a77e 903d 5570 0c3b 5d17 78bd 40b2 943d
00000350: dfba 433d 5214 75bd be88 bdbd 5e3e a73c
00000360: 81d9 1f3d fc66 9ebc c22c 193d ca49 7fbc
00000370: e318 0e3d 2219 bb3d e1c5 27bd a014 b73d
00000380: 7434 0f3e 9094 fabd 599b 9d3d a00e 0a3d
00000390: 0a82 c4bc e427 a63c 9716 1f3d 82e9 6dbd
000003a0: aa12 74bd bc79 4ebd deb0 cdbb 97c6 aabc
000003b0: 0ff8 283d 6914 ccbb fbf1 883d 5b6f 78bd
000003c0: 502b 073d 8798 ac3d c6e2 ad3d 49bf 80bd
000003d0: a568 3c3b dd13 833d 12ed a23c 4481 b9bc
000003e0: 7d4c a0bd dbe4 7e3d 8977 de3c 00b8 573d
000003f0: ea21 67bd e0fe 1b3c 2a8f 0dbd adb7 273d

pre_layer.3.bias f4 [64]
0.0542768 0.0015151934 0.024264213 -0.048951324 0.07257463 0.008369018 -0.052298922 0.110566854
0.041206025 0.10672504 -0.008517893 -0.020834837 -0.025863692 0.0026263143 0.020374706 0.041497543
0.10992368 -0.008444676 0.10279107 0.09430284 0.04727868 0.07528286 -0.037863776 0.07141072
0.11237821 0.027085042 0.029587274 0.04204035 0.040103544 0.05387829 0.048236992 0.06655394
0.0423102 0.030893307 0.12495754 -0.020322813 0.16339086 0.10834257 0.06769292 0.08420727
0.059830606 0.06664718 0.0025766538 0.036186825 0.07491349 0.09535399 0.00995683 0.083200224
0.044897176 0.12443349 0.11994737 0.15099274 0.051271036 0.04651447 0.017872097 0.10706286
0.0060481066 0.013436493 0.03820911 -0.107031375 0.12006841 -0.020957183 0.061251562 0.119400434
00000000: 5a51 5e3d 7499 c63a bec5 c63c 2f81 48bd
00000010: 02a2 943d 351e 093c 6537 56bd e070 e23d
00000020: a6c7 283d a892 da3d a28e 0bbc d2ad aabc
00000030: 18e0 d3bc 3e1e 2c3b dbe8 a63c 54f9 293d
00000040: ab1f e13d 8a5b 0abc 2084 d23d d921 c13d
00000050: 4aa7 413d e62d 9a3d 0c17 1bbd c93f 923d
00000060: 8c26 e63d 73e1 dd3c 0361 f23c 8132 2c3d
00000070: 9d43 243d 7baf 5c3d 2794 453d 6f4d 883d
00000080: 764d 2d3d f613 fd3c bde9 ff3d 077c a6bc
00000090: ef4f 273e b6e2 dd3d 96a2 8a3d dc74 ac3d
000000a0: f010 753d 517e 883d 14dd 283b a338 143d
000000b0: 3e6c 993d f448 c33d f921 233c e164 aa3d
000000c0: 1ae6 373d fcd6 fe3d f7a6 f53d d79d 1a3e
000000d0: 9401 523d f585 3e3d 8168 923c c643 db3d
000000e0: 322f c63b bd24 5c3c 2881 1c3d 4433 dbbd
000000f0: 6de6 f53d 66ae abbc ebe2 7a3d 3788 f43d

pre_layer.6.weight f4 [64, 64, 3, 3]
-0.03627694 -0.054488778 0.02006129 -0.07176029 -0.06266424 -0.04839664 -0.0094201565 -0.050640438
-0.056921963 -0.028442236 0.014922442 0.09657773 0.07997201 0.106604196 0.055255573 -0.03486675
-0.06086622 -0.12017061 -0.00049911597 -0.034415063 0.0064534224 -0.01700442 -0.08204435 0.0051729763
0.014688965 0.03432778 -0.04828454 -0.030889906 0.0009229987 0.021992937 0.050685965 0.0028451828
0.015843563 -0.0010532783 -0.02986377 0.052625347 0.0619095 -0.0457332 -0.042732913 0.054699924
-0.019709736 -0.046185177 0.024569027 0.049097188 0.08142237 -0.05381867 -0.030112641 -0.052794237
0.049741063 -0.10534197 -0.05511694 0.009095644 0.12500319 0.12271241 0.01155797 -0.07385774
-0.008197871 0.07939228 0.027855698 -0.02100794 0.08486114 -0.030704366 0.035592303 0.06299179
-0.069688395 -0.041415073 0.012731305 -0.09108465 0.04468391 -0.04045639 -0.028879542 0.011643272
0.07884506 0.08928227 0.02609708 0.040568944 0.009671075 0.036633912 -0.026983863 0.019913787
0.03955907 0.024115432 -0.051553212 -0.035500534 0.023787566 -0.0135559635 -0.045935243 -0.04912885
-0.09275585 0.026611498 0.008163464 -0.08044248 0.035754103 -0.017348163 -0.045905095 -0.042716306
0.00085274864 0.010930921 0.08817841 -0.0327173 -0.007930773 0.023142446 -0.047406454 0.001959936
0.02048309 -0.029386172 -0.0126499655 0.11293467 -0.027853588 -0.09196402 -0.0154373245 0.032697726
-0.028454823 0.041618228 0.014407989 0.0054720757 0.08283759 0.03138592 0.105145834 -0.023823885
0.027433557 0.1019175 0.06665385 -0.006416903 -0.059072282 0.03670779 0.06251569 -0.0032798995
-0.030574936 0.015827565 0.019907065 0.08041088 0.15227327 0.018345939 0.08609096 -0.07321315
0.029962286 -0.086476244 0.10358698 0.09968253 -0.022760853 0.028129254 0.13411054 0.045071736
0.058156434 -0.070644386 -0.07335016 0.092969045 0.043546807 -0.05302251 0.0013256905 -0.007898334
-0.10273934 0.07529165 -0.030011004 -0.029702077 0.07184677 0.097530305 0.019632636 0.1360043
0.13727641 0.12608594 0.053093635 -0.12834558 -0.044286843 0.038133185 -0.020645559 0.034131255
0.05210565 -0.026044203 0.1000989 -0.018622838 -0.017501598 -0.07185883 -0.02540585 0.0054040556
0.00020472251 -0.11933993 0.03195013 -0.030655883 0.08983212 0.026770169 0.06776675 0.056738444
0.03890766 0.03492276 -0.041448437 -0.037223138 -0.088755615 -0.056361917 -0.06619898 -0.04052564
0.01719381 -0.024389347 0.03051324 0.020699602 0.033261616 0.055529363 0.050068695 -0.050536122
-0.053183075 0.03165519 0.029364973 -0.0338475 0.10624131 0.10753019 0.12308887 -0.034138322
-0.08345501 -0.026123319 0.050567426 0.033037048 0.04557293 0.07325869 0.062478546 -0.018393315
-0.0716318 0.061511014 -0.0023315898 -0.06718828 0.003485631 0.06960363 -0.0018268808 0.015008744
0.14009222 -0.07223513 -0.01238547 -0.048934422 -0.022302445 0.013788999 0.014262156 0.070164435
0.039210785 0.033809062 0.008124577 0.07803385 -0.028101066 -0.14017984 -0.07128733 -0.1334677
-0.15077859 -0.12614366 -0.07780063 0.036959175 0.08528492 -0.07038427 0.08596397 0.045127716
0.023350433 -0.076233335 0.025184307 -0.06372684 0.04852329 -0.002436274 0.0701034 0.09744205
00000000: 2197 14bd a02f 5fbd 9357 a43c 0ff7 92bd
00000010: 1c56 80bd 8e3b 46bd 0057 1abc 596c 4fbd
00000020: 0127 69bd b1ff e8bc 427d 743c 8bca c53d
00000030: 5dc8 a33d 4d53 da3d ab53 623d 70d0 0ebd
00000040: dc4e 79bd 021c f6bd 1bd7 02ba cff6 0cbd
00000050: 3b77 d33b da4c 8bbc de06 a8bd 1282 a93b
00000060: fca9 703c 499b 0c3d 03c6 45bd d40c fdbc
00000070: 65f5 713a 882a b43c 169c 4f3d 3f76 3a3b
00000080: 5cca 813c 280e 8aba dda4 f4bc ad8d 573d
00000090: d194 7d3d bc52 3bbd b508 2fbd 070d 603d
000000a0: 5076 a1bc ab2c 3dbd fc44 c93c 221a 493d
000000b0: c6c0 a63d f770 5cbd c9ae f6bc c53e 58bd
000000c0: 49bd 4b3d 88bd d7bd 4dc2 61bd e505 153c
000000d0: d600 003e a550 fb3d a45d 3d3c ba42 97bd
000000e0: 5d50 06bc 6b98 a23d a231 e43c d818 acbc
000000f0: adcb ad3d b987 fbbc 3cc9 113d d701 813d
00000100: cab8 8ebd daa2 29bd f796 503c 978a babd
00000110: 7a06 373d 99b5 25bd ca94 ecbc 6cc3 3e3c
00000120: 8579 a13d 9fd9 b63d 8bc9 d53c 9f2b 263d
00000130: 6e73 1e3c 710d 163d 430d ddbc 3d22 a33c
00000140: b108 223d ba8d c53c 7629 53bd 0269 11bd
00000150: 24de c23c d519 5ebc 9826 3cbd 553b 49bd
00000160: c7f6 bdbd 5b00 da3c 0dc0 053c 07bf a4bd
00000170: e572 123d bc1d 8ebc fb06 3cbd 4bf7 2ebd
00000180: fe8a 5f3a 9b17 333c e296 b43d 9302 06bd
00000190: 13f0 01bc 3a95 bd3c 452d 42bd 4572 003b
000001a0: 27cc a73c 45bb f0bc cd41 4fbc 4b4a e73d
000001b0: 352d e4bc a257 bcbd d5ec 7cbc 0dee 053d
000001c0: 171a e9bc e077 2a3d 7c0f 6c3c 194f b33b
000001d0: c1a6 a93d 868e 003d b356 d73d 4f2a c3bc
000001e0: 57bc e03c 1fba d03d d081 883d e244 d2bb
000001f0: c7f5 71bd e85a 163d 3a08 803d 95f3 56bb
00000200: 4a78 fabc cfa8 813c 2414 a33c 76ae a43d
00000210: 86ed 1b3e 394a 963c 7550 b03d c7f0 95bd
00000220: 7873 f53c 751a b1bd 6925 d43d 5b26 cc3d
00000230: f874 babc 526f e63c 4654 093e 249d 383d
00000240: 7135 6e3d 01ae 90bd 9c38 96bd 8e66 be3d
00000250: 235e 323d 222e 59bd cbc2 ad3a 0468 01bc
00000260: 0169 d2bd 8232 9a3d a3d9 f5bc c551 f3bc
00000270: 6624 933d f8bd c73d 9fd4 a03c b644 0b3e
00000280: 3092 0c3e ac1c 013e b678 593d 066d 03be
00000290: 1f66 35bd 8b31 1c3d e020 a9bc 37cd 0b3d
000002a0: bc6c 553d a75a d5bc a700 cd3d ec8e 98bc
000002b0: 835f 8fbc b92a 93bd ee1f d0bc 8114 b13b
000002c0: c8aa 5639 7e68 f4bd 24de 023d 0c22 fbbc
000002d0: e7f9 b73d 1d4d db3c 4bc9 8a3d 9266 683d
000002e0: a35d 1f3d 2b0b 0f3d d6c5 29bd 4a77 18bd
000002f0: 81c5 b5bd c1db 66bd 5593 87bd 37fe 25bd
00000300: 08da 8c3c 2bcc c7bc e7f6 f93c 3692 a93c
00000310: 553d 083d c272 633d d514 4d3d f7fe 4ebd
00000320: 7fd6 59bd dfa8 013d d08e f03c ada3 0abd
00000330: 0b95 d93d ca38 dc3d 0416 fc3d a0d4 0bbd
00000340: 76ea aabd 9200 d6bc ca1f 4f3d db51 073d
00000350: aeaa 3a3d a708 963d 81e9 7f3d 94ad 96bc
00000360: b1b3 92bd f9f2 7b3d 96cd 18bb 029a 89bd
00000370: 2f6f 643b 598c 8e3d f373 efba 3ce7 753c
00000380: 5674 0f3e 03f0 93bd 6dec 4abc 766f 48bd
00000390: 9eb3 b6bc 41eb 613c d1ab 693c 5fb2 8f3d
000003a0: 7d9b 203d 5f7b 0a3d f21c 053c 36d0 9f3d
000003b0: 3534 e6bc 4e8b 0fbe 17ff 91bd c2ab 08be
000003c0: b465 1abe ce2b 01be f055 9fbd 8162 173d
000003d0: dca9 ae3d a125 90bd e10d b03d d7d7 383d
000003e0: 6849 bf3c 3920 9cbd 524f ce3c 3883 82bd
000003f0: 5bc0 463d e5a9 1fbb 5f92 8f3d b38f c73d

pre_layer.6.bias f4 [64]
0.0077655055 0.05806243 0.1442913 0.099072084 0.07683735 0.03699753 0.060078245 0.096577734
0.14818169 0.068061836 -0.0074576563 0.15112427 0.0047249803 0.048316494 -0.012282696 0.059936296
0.1136747 0.09223599 0.04270845 0.003945544 0.07209963 0.03587204 0.072267205 0.04521151
0.05632274 0.12594247 0.10039759 0.0075657023 0.16162977 0.012056338 0.11065665 0.15101099
0.0502704 0.04827617 0.13495292 0.11467103 0.049273036 0.06850527 0.07703164 0.032546792
0.026618771 0.030465048 0.082201675 0.08370644 0.117046386 0.088240445 0.12753412 0.010404101
0.09393193 0.11710438 0.08943383 0.08796587 0.10016103 -0.08661237 0.13872685 0.05980839
-0.037494242 -0.014306006 0.021684716 0.05699258 0.09829152 0.13710062 0.040565565 0.095543735
00000000: c875 fe3b dfd2 6d3d 19c1 133e 4ee6 ca3d
00000010: e75c 9d3d b98a 173d 9b14 763d 8cca c53d
00000020: f1bc 173e 0164 8b3d 5b5f f4bb 52c0 1a3e
00000030: 02d4 9a3b 84e7 453d 5c3d 49bc c37f 753d
00000040: 48ce e83d 39e6 bc3d 0eef 2e3d 9f49 813b
00000050: f9a8 933d 8fee 123d d400 943d b42f 393d
00000060: acb2 663d 10f7 003e 409d cd3d b6e9 f73b
00000070: 4682 253e f287 453c f49f e23d a0a2 1a3e
00000080: 56e8 4d3d 3cbd 453d 1931 0a3e a5d8 ea3d
00000090: 86d2 493d 7e4c 8c3d c4c2 9d3d c94f 053d
000000a0: 9c0f da3c d691 f93c 5a59 a83d 486e ab3d
000000b0: 04b6 ef3d 68b7 b43d 4e98 023e f675 2a3c
000000c0: 625f c03d 6cd4 ef3d 1529 b73d 7327 b43d
000000d0: 3a21 cd3d d461 b1bd 690e 0e3e a4f9 743d
000000e0: 9093 19bd bd63 6abc 25a4 b13c 0d71 693d
000000f0: 104d c93d 1b64 0c3e 1428 263d 6fac c33d

pre_layer.9.weight f4 [128, 64, 2, 2]
-0.101521984 -0.040726446 -0.124396265 0.008546325 0.020400768 -0.09410053 0.03462156 -0.08822712
0.006007564 0.02115698 -0.039643586 0.04175649 0.020172287 0.047001567 -0.004677173 -0.047747355
0.032399047 -0.021105332 0.07192353 -0.02074632 0.10590106 0.019057663 0.039308388 -0.021888934
0.21294251 0.05028536 0.03971323 -0.063566335 -0.06953325 -0.012909708 0.037429996 -0.025721813
-0.17299093 -0.14157717 -0.021278476 0.1027742 -0.097835995 0.049779095 -0.0683896 -0.09692878
-0.13820884 -0.051677275 0.010989191 0.122659415 0.03080761 0.19782077 0.03342714 0.034858923
0.14098655 -0.0018749826 -0.07900598 -0.030505823 0.019834634 0.045065835 -0.052639473 0.015805032
-0.0016582484 0.07597544 0.010396827 0.0042879563 -0.02542705 0.07910952 -0.075937204 -0.1379426
0.056097098 -0.10314409 0.04935245 0.1171835 0.10473223 0.082647674 -0.06097437 -0.09304001
-0.042518612 -0.06674756 0.005002909 -0.07779749 -0.16626835 -0.08597831 -0.12403159 -0.010635466
0.045737583 -0.08985872 0.056189187 -0.13125238 -0.008207611 0.016053077 -0.0348508 0.04656799
0.0042662746 0.006616788 -0.009132159 0.014970166 -0.051125612 -0.044515133 -0.12807387 0.03111936
-0.0062045804 0.098968625 0.08735214 0.07323384 0.0072977804 0.025918838 -0.05893944 -0.11149281
0.040477112 0.09998183 0.0011941593 -0.0126543585 0.06249208 -0.014614317 -0.061630365 -0.07510127
-0.086111054 0.0027285847 -0.022640318 0.09783569 0.05494036 -0.06465085 0.0057946756 -0.086740054
-0.0046418044 -0.039750863 0.067911506 0.105455086 -0.008336084 0.092982925 0.1405873 0.025688153
-0.043269403 -0.13058601 -0.18149059 -0.17161274 -0.09682268 0.00703893 -0.036283847 -0.096396476
0.035566278 0.112182096 -0.15427311 -0.053364757 0.050111093 -0.027385699 0.03206264 -0.055858575
0.017125973 -0.0064953533 0.01381968 0.0017317057 -0.13140781 -0.0970401 -0.066497326 -0.11436223
0.002996189 0.008289526 -0.007597644 0.02465308 0.01566088 0.032041684 0.03866419 -0.11469735
0.02918371 -0.12520884 -0.0017046061 -0.034651157 0.11526651 0.014180592 -0.12967968 -0.1488444
-0.027283728 0.112691075 -0.009527363 0.116133705 -0.021833453 0.0011426399 -0.034127317 0.092951395
0.08796561 0.05898814 -0.060463183 -0.035499796 -0.013505904 -0.049205482 0.057426047 0.07095286
0.004172194 0.11585992 0.1279237 0.06642422 -0.09812096 -0.14048192 -0.10759565 -0.05777442
-0.13991879 -0.024753045 -0.04301237 -0.038014896 -0.09560157 -0.05187006 0.041977454 -0.0578818
-0.05522695 0.02061116 -0.021581983 0.002316857 0.010829153 -0.09561628 -0.12188404 0.059532493
0.004782469 -0.02174469 0.03397509 -0.03651257 -0.06471558 0.013458865 -0.09595337 0.022435147
-0.058069456 0.08531574 -0.041093104 -0.012753301 -0.015292947 0.041453734 -0.17405286 -0.036289856
-0.12842715 -0.1004142 -0.003658829 -0.07836715 -0.021825904 -0.18197498 0.027230784 -0.0023958252
-0.18457001 -0.10027578 0.08746122 0.14142588 -0.09689289 0.032597136 0.17630519 0.143123
0.041292753 -0.043420374 -0.076139614 0.026340587 -0.14748201 -0.045944262 -0.03562417 0.075352184
0.035270687 0.08540153 -0.089132495 -0.06405336 0.051752016 -0.021021897 -0.09258806 -0.08079044
00000000: c2ea cfbd c6d0 26bd 78c3 febd e305 0c3c
00000010: 831f a73c c7b7 c0bd 56cf 0d3d 6cb0 b4bd
00000020: 19db c43b 6751 ad3c 5061 22bd da08 2b3d
00000030: 5a40 a53c b784 403d f942 99bb bb92 43bd
00000040: ddb4 043d 17e5 acbc a54c 933d 30f4 a9bc
00000050: a8e2 d83d d11e 9c3c d501 213d 6c50 b3bc
00000060: 9a0d 5a3e 06f8 4d3d 57aa 223d 112f 82bd
00000070: 7367 8ebd 3d83 53bc 3250 193d 8db6 d2bc
00000080: 8924 31be 9bf9 10be 3350 aebc 487b d23d
00000090: 3d5e c8bd 2ae5 4b3d d90f 8cbd 9982 c6bd
000000a0: 9e86 0dbe 8dab 53bd 020c 343c dc34 fb3d
000000b0: 3e60 fc3c 8791 4a3e e6ea 083d 3bc8 0e3d
000000c0: c75e 103e fac1 f5ba e3cd a1bd 59e7 f9bc
000000d0: 3e7c a23c f496 383d 7d9c 57bd 8e79 813c
000000e0: 9559 d9ba 0399 9b3d 7457 2a3c fc81 8c3b
000000f0: 644c d0bc 2c04 a23d f784 9bbd d340 0dbe
00000100: 12c6 653d 353d d3bd cb25 4a3d e7fd ef3d
00000110: da7d d63d 2f43 a93d 43c0 79bd c38b bebd
00000120: ff27 2ebd f2b2 88bd 71ef a33b 4a54 9fbd
00000130: 4042 2abe 6515 b0bd 4604 febd 6140 2ebc
00000140: 5557 3b3d d907 b8bd a226 663d 0667 06be
00000150: 3779 06bc be81 833c b6bf 0ebd 14be 3e3d
00000160: 1bcc 8b3b a4d1 d83b 0d9f 15bc 6d45 753c
00000170: 1769 51bd 8055 36bd cc25 03be 07ee fe3c
00000180: cb4f cbbb 10b0 ca3d aee5 b23d a0fb 953d
00000190: 3822 ef3b be53 d43c 7b6a 71bd 5856 e4bd
000001a0: 54cb 253d 46c3 cc3d 5685 9c3a 3a54 4fbc
000001b0: b2f7 7f3d e370 6fbc 1f70 7cbd b2ce 99bd
000001c0: fe5a b0bd 0ed2 323b 3078 b9bc 145e c83d
000001d0: 2509 613d aa67 84bd 43e1 bd3b c5a4 b1bd
000001e0: 471a 98bb cdd1 22bd 3015 8b3d d6f8 d73d
000001f0: 1294 08bc d56d be3d 1ef6 0f3e f66f d23c
00000200: 423b 31bd 57b8 05be abd8 39be 40bb 2fbe
00000210: f84a c6bd d3a6 e63b 5f9e 14bd 846b c5bd
00000220: f2ad 113d babf e53d c5f9 1dbe 0195 5abd
00000230: 4a41 4d3d f957 e0bc 1d54 033d f6cb 64bd
00000240: c54b 8c3c f9d6 d4bb f06b 623c 67fa e23a
00000250: c58f 06be f6bc c6bd c02f 88bd bf36 eabd
00000260: b65b 443b cbd0 073c a8f5 f8bb 42f5 c93c
00000270: 3f4b 803c 243e 033d 575e 1e3d 72e6 eabd
00000280: ad12 ef3c bf36 00be 176d dfba 5fee 0dbd
00000290: d910 ec3d b755 683c c0ca 04be ab6a 18be
000002a0: 2082 dfbc 94ca e63d a818 1cbc 82d7 ed3d
000002b0: 12dc b2bc a2c4 953a 16c9 0bbd 4d5d be3d
000002c0: 5027 b43d 8c9d 713d 3ea8 77bd 3c68 11bd
000002d0: de47 5dbc b08b 49bd 9337 6b3d bc4f 913d
000002e0: e6b6 883b f747 ed3d 6efe 023e 6c09 883d
000002f0: a4f3 c8bd 7eda 0fbe 1c5b dcbd dfa4 6cbd
00000300: df46 0fbe e6c6 cabc bd2d 30bd 82b5 1bbd
00000310: c2ca c3bd b375 54bd 8df0 2b3d 7715 6dbd
00000320: a835 62bd bcd8 a83c b3cc b0bc 69d6 173b
00000330: c26c 313c 78d2 c3bd 579e f9bd 58d8 733d
00000340: 42b6 9c3b ec21 b2bc 7729 0b3d 348e 15bd
00000350: 9a89 84bd 9282 5c3c 3383 c4bd eac9 b73c
00000360: 3dda 6dbd 05ba ae3d 3e51 28bd 39f3 50bc
00000370: 458f 7abc 64cb 293d ea3a 32be aca4 14bd
00000380: 6882 03be f6a5 cdbd f7c8 6fbb f57e a0bd
00000390: 3dcc b2bc a657 3abe 1813 df3c 4703 1dbb
000003a0: ecff 3cbe 635d cdbd de1e b33d f2d1 103e
000003b0: c86f c6bd 9384 053d 5989 343e d68e 123e
000003c0: 9722 293d 90d9 31bd 16ef 9bbd 37c8 d73c
000003d0: 8605 17be 0d30 3cbd a6ea 11bd 3f52 9a3d
000003e0: ff77 103d ffe6 ae3d 198b b6bd 682e 83bd
000003f0: ecf9 533d 1d36 acbc cf9e bdbd 7575 a5bd

pre_layer.9.bias f4 [128]
0.09611833 0.11865778 0.099246085 0.03917027 0.056501884 0.0850388 0.11805306 0.0866397
0.16593407 0.18675172 0.06829187 0.05949062 0.10505064 0.09862077 0.10002989 0.033667915
0.15732044 0.16650866 0.17014368 0.042831253 0.153043 0.09034779 0.1034167 0.04485392
0.11900866 0.02286282 0.16305128 0.05032105 0.12279736 0.108831465 0.2098441 0.10944543
0.093237825 0.092069834 0.10681698 0.055998217 0.1398399 0.17121944 0.10481543 0.037761584
0.1581385 0.10414418 0.070280366 0.15100396 0.09490372 0.14958408 0.1007803 0.08898975
0.11822889 0.15222107 0.10602251 0.12235141 0.03838948 0.112243064 0.1512532 0.12587526
0.072224915 0.12071024 0.08314495 0.18497397 0.045578964 0.14374317 0.043974772 0.13816312
0.15217052 0.10101371 0.12114772 0.159142 0.040645774 0.03665897 0.088406205 0.092602655
0.07922377 0.06917955 0.16896786 0.095139235 0.062354527 0.15652338 0.10304989 0.16722122
0.13619824 0.13803001 0.106267534 0.10958649 0.014080052 0.08624287 0.0885613 0.13470417
0.11407212 0.13709082 0.13453919 0.1347886 0.17706272 0.10868595 0.08039018 0.024628336
0.1604365 0.11257191 0.10153676 0.10324782 0.18157926 0.11968023 0.10651339 0.093096085
0.10112863 0.045877498 0.11390382 0.124658905 0.07777961 0.037130747 0.10803326 0.1854677
0.21451843 0.06120513 0.10126369 0.14194648 0.12936053 0.105562165 0.12389562 0.11252335
0.10533587 0.1104706 0.09640856 0.13388157 0.1833339 0.06884495 0.12036683 0.045559887
00000000: b0d9 c43d da02 f33d 8841 cb3d 0171 203d
00000010: 856e 673d d328 ae3d cdc5 f13d 2870 b13d
00000020: 9fea 293e d83b 3f3e 9cdc 8b3d 70ac 733d
00000030: ca24 d73d b0f9 c93d 79dc cc3d 5ee7 093d
00000040: 9c18 213e 3f81 2a3e 253a 2e3e d36f 2f3d
00000050: 4eb7 1c3e 4308 b93d 23cc d33d beb8 373d
00000060: d0ba f33d cf4a bb3c eaf6 263e 721d 4e3d
00000070: 2f7d fb3d 08e3 de3d 5fe1 563e ed24 e03d
00000080: 79f3 be3d 1c8f bc3d dcc2 da3d 635e 653d
00000090: 3132 0f3e 2654 2f3e 79a9 d63d e4ab 1a3d
000000a0: 0fef 213e 8b49 d53d 27ef 8f3d c8a0 1a3e
000000b0: e25c c23d 922c 193e e765 ce3d 4240 b63d
000000c0: fd21 f23d d7df 1b3e 5422 d93d 6093 fa3d
000000d0: 4a3e 1d3d b1df e53d 1ee2 1a3e 72e5 003e
000000e0: a8ea 933d ee36 f73d e647 aa3d d169 3d3e
000000f0: 02b1 3a3d 6931 133e e41e 343d a27a 0d3e
00000100: 97d2 1b3e 47e0 ce3d 4c1c f83d 1ff6 223e
00000110: 2f7c 263d b727 163d 500e b53d 76a6 bd3d
00000120: 1240 a23d 02ae 8d3d e905 2d3e 5cd8 c23d
00000130: 7667 7f3d aa47 203e d20b d33d 0a3c 2b3e
00000140: 8d77 0b3e bd57 0d3e cba2 d93d e26e e03d
00000150: 05b0 663c 1aa0 b03d a05f b53d e4ef 093e
00000160: a59e e93d 8961 0c3e a4c4 093e 0606 0a3e
00000170: ee4f 353e bd96 de3d 9ba3 a43d 5dc1 c93c
00000180: 7749 243e 1a8c e63d 81f2 cf3d 9873 d33d
00000190: eaef 393e e91a f53d b123 da3d 29a9 be3d
000001a0: 871c cf3d 0bea 3b3d 6846 e93d 2b4d ff3d
000001b0: eb4a 9f3d 6916 183d 8b40 dd3d 3feb 3d3e
000001c0: b8aa 5b3e 3bb2 7a3d 5663 cf3d 6b5a 113e
000001d0: 1677 043e fa30 d83d fdbc fd3d a472 e63d
000001e0: 55ba d73d 693e e23d da71 c53d 4018 093e
000001f0: e2bb 3b3e 95fe 8c3d e282 f63d 019d 3a3d

conv5.weight f4 [256, 512]
0.009031638 -0.07516198 -0.06817235 -0.015756229 -0.05132775 -0.08776609 0.051781792 0.05031815
0.039798245 0.0053442433 0.025293833 0.035764836 -0.0501728 -0.055712562 -0.11075546 -0.029673139
-0.075661235 -0.14901793 0.05240676 -0.057315674 -0.069342285 -0.036008805 -0.02458715 -0.07672409
-0.08393994 -0.058168758 0.07042964 0.0654143 -0.12608765 -0.0036659734 -0.05836753 -0.03161725
-0.0024052216 0.037280653 -0.08217474 -0.08296074 -0.11983456 -0.14956973 -0.030243523 -0.093416095
0.06310786 0.021190329 0.048875336 0.030291758 -0.0366296 0.07797096 0.019270923 -0.041778333
-0.0697501 -0.028102988 -0.10198157 -0.05109875 -0.007272743 0.03855644 -0.103675194 -0.099055514
-0.033315346 0.04716779 0.047592904 0.12854762 0.047808316 0.14052524 -0.039428025 0.04093541
0.07982555 -0.10957992 -0.04188148 -0.052265197 -0.012068067 -0.12816435 -0.11298537 0.11467227
-0.13709198 -0.08934095 -0.06718902 0.03584329 -0.052474555 0.042077035 0.0015784373 -0.13887294
0.038674608 0.040598296 -0.033796966 0.052069787 0.015839443 -0.091976084 0.052132983 0.014664922
0.028532462 0.091025054 -0.015369519 -0.124524646 0.020538703 0.012825364 -0.12371188 -0.0131848855
-0.049298488 -0.0008091551 -0.035308883 0.08640232 0.031300563 0.07322583 0.0023597463 0.053803418
-0.070418306 0.049075373 -0.010175961 0.12109909 0.073369496 -0.07494845 -0.03207967 -0.07086568
-0.12649755 -0.10673612 -0.010310609 0.041778415 0.0024447846 -0.085053176 -0.06784897 0.08193904
-0.0032478152 -0.07429022 -0.09404528 0.08578768 0.054508552 0.045838803 -0.03708978 0.05282882
0.0027048844 -0.013899508 -0.025316859 -0.08428297 0.05909707 0.0037463505 0.0629251 -0.019487806
-0.051950846 -0.030767374 0.05907634 -0.059750162 0.03928992 0.06832746 -0.04679876 -0.012772035
-0.09453808 0.0115648005 0.008998672 -0.0410148 -0.1419047 -0.117792234 -0.07299397 0.049197882
-0.06472383 0.06854077 -0.0064690933 0.0060910857 0.06317814 0.08186442 -0.023971768 -0.014666237
-0.19176519 -0.02328208 -0.03291648 0.045347225 -0.10939606 0.038350437 -0.062689506 -0.0760306
-0.06340468 -0.00018654497 -0.059712145 0.009646979 0.042230077 -0.025236215 0.007735563 -0.06216842
-0.029137515 -0.028947495 -0.04097532 -0.077000566 -0.079111464 0.016328795 -0.035457913 0.042014703
0.009385141 -0.075500995 0.040106755 -0.044611543 0.03602896 -0.014203109 -0.06902746 -0.0145624345
0.016001474 0.019639429 -0.0044395933 0.074625544 -0.008651617 -0.02703127 0.042152144 0.017053844
-0.011428633 -0.14787708 -0.07664223 0.061495144 -0.02453848 0.043888032 -0.04155134 0.027901528
-0.042695586 0.037734617 0.009728254 0.06856387 -0.0852372 0.034065392 -0.009194518 -0.009609331
-0.007840288 -0.10696353 0.060367525 -0.035397198 -0.03363757 -0.1316829 -0.036663905 -0.03535096
-0.07071451 0.07433037 0.0151994955 -0.027339568 -0.06279816 -0.03953935 0.005547806 0.0802661
0.041012496 -0.06461852 -0.076145075 0.0155220255 -0.03202855 -0.047459196 -0.08965339 0.04279568
0.005969062 -0.05884698 -0.017897194 -0.15685244 -0.1363073 0.022446606 0.08563233 -0.001407547
0.034186352 -0.064523645 -0.07798372 0.059996355 0.004644045 -0.12892567 -0.0476205 -0.013766458
00000000: 6ff9 133c 86ee 99bd f29d 8bbd 3513 81bc
00000010: 0c3d 52bd b5be b3bd 2519 543d 681a 4e3d
00000020: 7c03 233d c31e af3b 0335 cf3c 267e 123d
00000030: fe81 4dbd db32 64bd c2d3 e2bd 1515 f3bc
00000040: 47f4 9abd 2898 18be 79a8 563d d7c3 6abd
00000050: 5403 8ebd f87d 13bd fe6a c9bc 8521 9dbd
00000060: b4e8 abbd 5d42 6ebd 6a3d 903d eff7 853d
00000070: 1f1d 01be d440 70bb cb12 6fbd 1781 01bd
00000080: eca0 1dbb 99b3 183d 3b4b a8bd 52e7 a9bd
00000090: d26b f5bd cf28 19be 44c1 f7bc f050 bfbd
000000a0: b23e 813d 5797 ad3c 8131 483d 6c26 f83c
000000b0: eb08 16bd 3daf 9f3d 0ede 9d3c c21f 2bbd
000000c0: 24d9 8ebd 3d38 e6bc b7db d0bd ec4c 51bd
000000d0: 3150 eebb 5ced 1d3d a953 d4bd 9edd cabd
000000e0: ac75 08bd 0333 413d c7f0 423d fda1 033e
000000f0: a7d2 433d d9e5 0f3e 487f 21bd e3ab 273d
00000100: 947b a33d 706b e0bd ea8b 2bbd 0814 56bd
00000110: 24b9 45bc 843d 03be e064 e7bd 4cd9 ea3d
00000120: d761 0cbe 63f8 b6bd 669a 89bd 6ad0 123d
00000130: 8fef 56bd f858 2c3d 91e3 ce3a b534 0ebe
00000140: 4469 1e3d 664a 263d b06e 0abd 2147 553d
00000150: b8c1 813c f55d bcbd 6589 553d 2445 703c
00000160: e9bc e93c 586b ba3d 6fd0 7bbc c706 ffbd
00000170: c840 a83c 7a21 523c a75c fdbd 6b05 58bc
00000180: 36ed 49bd 7b1d 54ba 0ca0 10bd b3f3 b03d
00000190: 0535 003d 6df7 953d f9a5 1a3b f960 5c3d
000001a0: 7937 90bd 4203 493d 13b9 26bc cd02 f83d
000001b0: bf42 963d 937e 99bd f965 03bd 0722 91bd
000001c0: 9388 01be 7898 dabd d4ed 28bc d81f 2b3d
000001d0: ae38 203b 5c30 aebd 67f4 8abd a8cf a73d
000001e0: 4cd9 54bb 7925 98bd d09a c0bd 73b1 af3d
000001f0: 5c44 5f3d 78c1 3b3d 74eb 17bd 0863 583d
00000200: 6e44 313b c3ba 63bc 4d65 cfbc 8d9c acbd
00000210: c50f 723d 5585 753b e0de 803d e4a4 9fbc
00000220: 69ca 54bd dc0b fcbc 08fa 713d 96bc 74bd
00000230: 78ee 203d 44ef 8b3d 0eb0 3fbd cc41 51bc
00000240: 2e9d c1bd 4a7a 3d3c 2a6f 133c 23ff 27bd
00000250: 774f 11be 0e3d f1bd dd7d 95bd b883 493d
00000260: ed8d 84bd 1a5f 8c3d b0fa d3bb bb97 c73b
00000270: 8a63 813d 88a8 a73d 7160 c4bc a84a 70bc
00000280: 185e 44be 10ba bebc 6ed3 06bd 03be 393d
00000290: 0b0b e0bd 5915 1d3d 5b63 80bd eeb5 9bbd
000002a0: 50da 81bd 499b 43b9 b994 74bd 5d0e 1e3c
000002b0: 72f9 2c3d 2ebc cebc 9b7a fd3b 50a4 7ebd
000002c0: ccb1 eebc 4c23 edbc bdd5 27bd 79b2 9dbd
000002d0: 3105 a2bd f7c3 853c 513c 11bd 9c17 2c3d
000002e0: 22c4 193c 44a0 9abd fb46 243d 98ba 36bd
000002f0: 1a93 133d 28b4 68bc 455e 8dbd 4797 6ebc
00000300: 8615 833c dee2 a03c 027a 91bb 47d5 983d
00000310: 83bf 0dbc af70 ddbc baa7 2c3d 81b4 8b3c
00000320: 293f 3bbc 176d 17be 9af6 9cbd 55e2 7b3d
00000330: ec04 c9bc f0c3 333d bd31 2abd bf91 e43c
00000340: 91e1 2ebd 9d8f 1a3d 4163 1f3c 376b 8c3d
00000350: d790 aebd 2788 0b3d 9ba4 16bc 7570 1dbc
00000360: 8d74 00bc b20f dbbd f043 773d a7fc 10bd
00000370: 8cc7 09bd e2d7 06be e42c 16bd 2bcc 10bd
00000380: c5d2 90bd 853a 983d 4e07 793c 3bf7 dfbc
00000390: 529c 80bd 03f4 21bd 5fca b53b 8e62 a43d
000003a0: b8fc 273d b756 84bd f3f1 9bbd 1850 7e3c
000003b0: 5e30 03bd 9364 42bd 329c b7bd 864a 2f3d
000003c0: 1f98 c33b 8809 71bd 239d 92bc ed9d 20be
000003d0: 2494 0bbe f2e1 b73c 0160 af3d 717d b8ba
000003e0: fd06 0c3d f924 84bd eeb5 9fbd bdbe 753d
000003f0: 132d 983b 1705 04be b70d 43bd b68c 61bc

conv5.bias f4 [256]
0.08259412 0.1296225 0.043660756 0.04319144 0.05935967 0.08789456 0.17962569 0.11508682
0.03459476 0.09204072 0.08846481 0.06833667 0.14115398 0.15409602 0.1602601 0.04543141
0.10305758 0.024608681 0.097558245 0.08323628 0.07848344 0.13431714 0.11168539 0.15996766
0.106226094 0.10056854 0.060224634 0.068647936 0.047095638 0.062670976 0.14309494 0.07428059
0.08434791 0.1126166 0.08337842 0.11980212 0.07336114 0.06549588 0.07802019 0.11518428
0.06392613 0.05397187 0.069191 0.07230463 0.13469005 0.116987914 0.101794615 0.057358157
0.16567832 0.094096795 0.15649015 0.12557793 0.08063821 0.13544314 0.10970961 0.093048334
0.07726064 0.13416691 0.12291869 0.132728 0.05199435 0.08955589 0.09214653 0.051548623
0.023907494 0.06280084 0.15123987 0.14851134 0.08304903 0.07117246 0.069881506 0.16196418
0.10467434 0.041520603 0.09015801 0.13149402 0.076231144 0.103237525 0.022370538 0.07713235
0.09547224 0.07011777 0.088663265 0.0064586117 0.028736489 0.13910173 0.0824341 0.08838163
0.06520029 0.092614144 0.09476311 0.09932297 0.10399806 0.09329825 0.0821006 0.19106036
0.1083158 0.042350106 0.06784763 0.05089751 0.06834506 0.09786127 0.098953694 0.01360915
0.14628245 0.07920585 0.15828231 0.08752378 0.07826263 0.06400251 0.081971474 0.053012285
0.056038126 0.081599705 0.08262497 0.111564614 0.07600684 0.14437145 0.14718942 0.10772091
0.10374114 0.05732569 0.15617496 0.15048042 0.06959818 0.023230493 0.07116909 0.07117855
0.08267761 0.06911805 0.084248304 0.16112652 0.09599121 0.13284892 0.11247393 0.076752394
0.04934379 0.09349435 0.12211159 0.054658346 0.091614805 0.10530594 0.09079466 0.120111845
0.049014136 0.1491831 0.056525018 0.086008586 0.07182379 0.11559412 0.07921118 0.061050374
0.18073691 0.023410883 0.0783344 0.13558967 0.09077122 0.10242512 0.03656408 0.05756421
0.07825699 0.101688474 0.08705064 0.08831588 0.098437525 0.0865367 0.14295553 0.074707925
0.055829536 0.067286015 0.061186675 0.084541164 0.15257734 0.041733664 -0.004872642 0.09608511
0.059689194 0.02887587 0.059626017 0.14362256 0.06876757 0.15041843 0.1543154 0.042699277
0.1443084 0.1001693 0.033899162 0.15325996 0.11308947 0.083750576 0.14425671 0.106225125
0.03645385 0.10374778 0.15038162 0.21497357 0.08935832 0.1278989 0.106389076 0.05629031
0.0804794 0.08797229 0.16652443 0.08339258 0.01772492 0.052284196 0.06710475 0.1270246
0.07573474 0.13513741 0.026209887 0.039507985 0.12202371 0.08255448 0.09099928 0.06997099
0.10112832 0.07625286 0.002427408 0.06693589 0.12962137 0.07420154 0.12833887 0.118591465
0.12296021 0.07436107 0.10994013 0.12154983 0.055464257 0.13526973 0.05607375 0.045015756
0.11596879 0.08735782 0.08139629 0.11273219 0.096295156 0.05117286 0.049990866 0.18275957
0.11575557 0.15743263 0.10287138 0.10575653 0.10902907 0.12731364 0.13336709 0.08555963
0.10485782 0.04752655 -0.03261171 0.078698054 0.15020208 0.06726287 0.15114722 0.10422675
00000000: 1b27 a93d c3bb 043e 9fd5 323d 82e9 303d
00000010: 2023 733d 1002 b43d ccef 373e a4b2 eb3d
00000020: 3cb3 0d3d d87f bc3d 0a2d b53d 19f4 8b3d
00000030: ab8a 103e 59cb 1d3e 391b 243e 4916 3a3d
00000040: da0f d33d 2598 c93c 9ecc c73d c877 aa3d
00000050: edbb a03d 6f8a 093e 4fbb e43d 90ce 233e
00000060: 118d d93d e1f6 cd3d 1bae 763d 4a97 8c3d
00000070: 5be7 403d a459 803d 7b87 123e 6c20 983d
00000080: 99be ac3d 88a3 e63d 4ec2 aa3d d05a f53d
00000090: 5e3e 963d b422 863d 0dc9 9f3d bce5 eb3d
000000a0: b4eb 823d 9c11 5d3d 03b4 8d3d 7314 943d
000000b0: 30ec 093e 5c97 ef3d b279 d03d 63f0 6a3d
000000c0: 94a7 293e d2b5 c03d f43e 203e 8097 003e
000000d0: a525 a53d 9bb1 0a3e 6faf e03d 2090 be3d
000000e0: d43a 9e3d 0d63 093e cbbc fb3d d9e9 073e
000000f0: 07f8 543d 1469 b73d 52b7 bc3d a624 533d
00000100: a6d9 c33c ba9d 803d a0de 1a3e 5b13 183e
00000110: 9c15 aa3d dec2 913d 091e 8f3d f0d9 253e
00000120: 805f d63d 8211 2a3d c3a4 b83d 5ea6 063e
00000130: 131f 9c3d 326e d33d 6b42 b73c 91f7 9d3d
00000140: f386 c33d e899 8f3d 1695 b53d c3a2 d33b
00000150: c968 eb3c af70 0e3e 36d3 a83d 6e01 b53d
00000160: bb87 853d 7cac bd3d 2913 c23d d769 cb3d
00000170: effc d43d 2713 bf3d 5c24 a83d 54a5 433e
00000180: add4 dd3d 4e77 2d3d b3f3 8a3d e879 503d
00000190: 7ff8 8b3d 7d6b c83d 3ca8 ca3d eaf8 5e3c
000001a0: 11cb 153e ad36 a23d c214 223e ab3f b33d
000001b0: 2848 a03d bf13 833d a9e0 a73d 6923 593d
000001c0: 3c88 653d bf1d a73d 4837 a93d fd7b e43d
000001d0: 79a9 9b3d 1cd6 133e d3b8 163e c89c dc3d
000001e0: 3c76 d43d 58ce 6a3d 54ec 1f3e 8a17 1a3e
000001f0: 7e89 8e3d e04d be3c 1ac1 913d 0fc6 913d
00000200: e152 a93d c48d 8d3d 608a ac3d 5afe 243e
00000210: 0a97 c43d 8c09 083e bb58 e63d 5c30 9d3d
00000220: b71c 4a3d f779 bf3d a415 fa3d 6ee1 5f3d
00000230: 8ba0 bb3d a4aa d73d 8df2 b93d 33fd f53d
00000240: 0cc3 483d 74c3 183e c786 673d 4525 b03d
00000250: 5a18 933d 9cbc ec3d 7939 a23d f50f 7a3d
00000260: 1913 393e 2ec8 bf3c c96d a03d 05d8 0a3e
00000270: 43e6 b93d 43c4 d13d 37c4 153d 73c8 6b3d
00000280: 3345 a03d 0c42 d03d 9b47 b23d f5de b43d
00000290: 9d99 c93d 273a b13d ef62 123e 7800 993d
000002a0: 83ad 643d 40cd 893d e19e 7a3d eb23 ad3d
000002b0: 3c3d 1c3e ebf0 2a3d afaa 9fbb 45c8 c43d
000002c0: a87c 743d 178d ec3c 693a 743d cb11 133e
000002d0: 03d6 8c3d 4a07 1a3e db04 1e3e 70e5 2e3d
000002e0: 95c5 133e 9025 cd3d d9d9 0a3d 2ef0 1c3e
000002f0: 749b e73d 6c85 ab3d 08b8 133e 8f8c d93d
00000300: a250 153d b779 d43d a4fd 193e 0822 5c3e
00000310: 7f01 b73d eef7 023e 84e2 d93d ab90 663d
00000320: 62d2 a43d d12a b43d 6185 2a3e bbc9 aa3d
00000330: da33 913c f427 563d 376e 893d bd12 023e
00000340: d11a 9b3d 7661 0a3e 1eb6 d63c 20d3 213d
00000350: 91e7 f93d 5312 a93d d55d ba3d f34c 8f3d
00000360: 5d1c cf3d 762a 9c3d 2615 1f3b af15 893d
00000370: 77bb 043e faf6 973d 446b 033e 15e0 f23d
00000380: 90d2 fb3d 9e4a 983d 4a28 e13d 1eef f83d
00000390: 7d2e 633d 2684 0a3e 97ad 653d 7162 383d
000003a0: 0c81 ed3d a8e8 b23d 19b3 a63d 22e0 e63d
000003b0: 6536 c53d a29a 513d 39c3 4c3d 5325 3b3e
000003c0: 4211 ed3d 0536 213e 3bae d23d e196 d83d
000003d0: a24a df3d 825e 023e 6291 083e e339 af3d
000003e0: b2bf d63d 33ab 423d db93 05bd 722c a13d
000003f0: 93ce 193e 1ec1 893d 56c6 1a3e d674 d53d
