week4 mtcnn face detection/Step1-face detection/weights/PNet.pth (torch_old, 30042 bytes, 11 tensors)

pre_layer.0.weight f4 [10, 3, 3, 3]
0.2943608 0.18038344 0.13474242 0.2941941 -0.08559383 -0.29131 -0.19782645 -0.3009592
-0.0037885325 0.12390715 0.27333716 0.11315233 0.11393955 -0.36495918 -0.07227246 -0.028116368
-0.22005287 0.15747467 0.063375555 0.2109003 -0.2268793 0.1584976 -0.1078256 -0.121012636
-0.15911327 -0.23594059 0.21532278 -0.051029705 0.28809577 0.2523286 -0.34180826 -0.11796875
0.20096682 -0.3520856 -0.32364348 -0.10311997 -0.024336467 0.10924449 0.086494505 -0.2508057
0.0676084 0.085423045 -0.22541004 -0.078688234 0.17306069 0.07662507 0.28466037 -0.09710486
-0.15414362 0.23280708 0.17093769 -0.20364822 -0.20501085 0.20149785 -0.36235768 -0.20545459
0.028695118 -0.23672035 0.12329759 0.3288344 -0.12122932 0.31528988 0.32168788 -0.06270591
-0.12743996 -0.030051693 -0.10120222 -0.0983208 -0.016942075 0.1238224 0.12080038 -0.013725603
0.13089445 -0.13652417 -0.11030465 0.05832433 -0.1649252 0.117423736 0.01321207 0.11496898
-0.046934735 0.05192013 0.34860384 -0.15966915 -0.29176372 0.22174904 -0.20103796 0.12945956
0.036945593 -0.21287291 -0.22134328 0.2794431 -0.18011329 -0.21826817 0.3131233 -0.07486598
0.105850995 0.24373005 -0.13801819 -0.026805459 -0.029095555 0.1269038 -0.20796068 0.18705131
-0.12314467 -0.010027778 0.21095702 -0.20454194 -0.2741076 -0.16414613 -0.2652973 -0.21523422
0.018852338 0.060233064 -0.20228341 -0.078434974 -0.085097685 -0.1262313 0.08776576 0.16771103
0.043711722 0.0315151 0.060572192 -0.16031663 0.16846871 0.07383112 0.12800965 -0.24346091
0.103704974 -0.16293387 0.082570694 -0.18831153 -0.051063225 -0.14571065 0.017146444 0.14935072
0.13249262 0.091605544 0.08108942 -0.084575646 0.17805181 0.12287509 -0.11352043 -0.11472238
0.20738705 0.112898305 0.1907963 -0.19614153 -0.094618276 -0.16146944 -0.33069277 -0.3331946
-0.104567505 0.02801253 0.30155954 0.011889531 0.08465529 0.21630608 0.15748802 -0.15055837
-0.17238711 -0.21894148 -0.24117395 -0.24299182 -0.20428391 -0.11052478 -0.20356953 -0.28890985
-0.27753788 -0.041901395 -0.111329384 0.11522139 0.20925537 0.16555421 0.007760631 0.2665996
0.25861692 0.31475037 0.13824251 -0.13190517 0.2043891 0.065067224 0.07419021 0.25028846
-0.051478036 0.07694669 -0.008271175 -0.04792621 0.22777864 -0.017103659 0.017756501 0.0026849075
-0.26063538 -0.207838 -0.020272808 -0.15538457 -0.098706365 0.049680438 0.16443095 -0.042906124
0.2937412 0.22246438 0.32832813 0.3202815 0.11042895 0.22426498 0.09408771 -0.12924609
-0.20433943 -0.16317245 0.09315756 -0.11911813 -0.29372072 -0.102386005 0.0064724437 -0.24861455
-0.090746395 -0.23263866 -0.2634648 0.047256205 0.043206893 0.13823873 0.16946626 -0.041491345
0.23798808 0.02143381 -0.34797427 -0.40931174 0.1925888 0.04469944 -0.08306725 0.25457737
0.2157172 -0.052294783 0.06237863 -0.30465677 -0.23455973 0.04405377 0.2824036 -0.023140954
0.09707092 0.20922263 -0.028900549 0.37787545 0.025200007 0.15394081 0.048824552 -0.01877709
0.26113147 0.1942323 0.15970506 -0.060564715 -0.33806205 -0.36052305 -0.3757555 -0.2949917
00000000: 75b6 963e 70b6 383e ebf9 093e 9ca0 963e
00000010: d14b afbd 9626 95be 0493 4abe 5317 9abe
00000020: 0749 78bb 08c3 fd3d d9f2 8b3e 69bc e73d
00000030: 2459 e93d eedb babe 9503 94bd 4c54 e6bc
00000040: 8a55 61be 0a41 213e 0bcb 813d 40f6 573e
00000050: 0c53 68be 324d 223e abd3 dcbd 79d5 f7bd
00000060: 97ee 22be 699a 71be 937d 5c3e 8604 51bd
00000070: 4a81 933e 3731 813e 7e01 afbe 9a99 f1bd
00000080: 3fca 4d3e 9044 b4be 99b4 a5be 9030 d3bd
00000090: 455d c7bc 93bb df3d 0824 b13d 9b69 80be
000000a0: 4676 8a3d 47f2 ae3d e4d1 66be 4c27 a1bd
000000b0: d236 313e 9bed 9c3d 01bf 913e eade c6bd
000000c0: d3d7 1dbe fb64 6e3e 4a0a 2f3e 2989 50be
000000d0: 5dee 51be 7455 4e3e f286 b9be b062 52be
000000e0: 0612 eb3c d266 72be 7283 fc3d fc5c a83e
000000f0: 1447 f8bd ad6d a13e 46b4 a43e f56b 80bd
00000100: 9f7f 02be f82e f6bc 1c43 cfbd 6a5c c9bd
00000110: 1bca 8abc 9996 fd3d 3166 f73d 5ae1 60bc
00000120: 3209 063e fecc 0bbe 68e7 e1bd 7ee5 6e3d
00000130: 27e2 28be db7b f03d 7077 583c db74 eb3d
00000140: a33e 40bd 34aa 543d 347c b23e 4f80 23be
00000150: 0e62 95be 2e12 633e e5dc 4dbe 0c91 043e
00000160: 4354 173d 5bfb 59be d0a7 62be 2a13 8f3e
00000170: 9e6f 38be b181 5fbe b251 a03e 5653 99bd
00000180: 68c8 d83d 5f94 793e a454 0dbe 1f97 dbbc
00000190: cd59 eebc 12f3 013e a5f3 54be 618a 3f3e
000001a0: 4633 fcbd 8d4b 24bc 1e05 583e 7173 51be
000001b0: d557 8cbe ec15 28be 0cd5 87be 5c66 5cbe
000001c0: 3870 9a3c f2b6 763d 6223 4fbe 84a2 a0bd
000001d0: b247 aebd c742 01be 89be b33d 71bc 2b3e
000001e0: 100b 333d fa15 013d 8c1a 783d 0b2a 24be
000001f0: 1083 2c3e c534 973d f614 033e d14d 79be
00000200: 4663 d43d 23d8 26be d31a a93d bdd4 40be
00000210: ac27 51bd 2c35 15be b376 8c3c 65ef 183e
00000220: 25ac 073e b09b bb3d 3612 a63d ff35 adbd
00000230: 3753 363e efa5 fb3d 667d e8bd 91f3 eabd
00000240: 455d 543e 3a37 e73d 1b60 433e 53d9 48be
00000250: 3ac7 c1bd 3f58 25be 9050 a9be 7c98 aabe
00000260: 7d27 d6bd 897a e53c 0366 9a3e 4fcc 423c
00000270: c15f ad3d 577f 5d3e 8a44 213e f92b 1abe
00000280: 3f86 30be 3232 60be 4ef6 76be d9d2 78be
00000290: cd2f 51be d15a e2bd 8874 50be feeb 93be
000002a0: 7219 8ebe cca0 2bbd a900 e4bd 31f9 eb3d
000002b0: 0a47 563e 0b87 293e e44c fe3b be7f 883e
000002c0: 7069 843e f626 a13e 728f 0d3e 2612 07be
000002d0: 604b 513e f741 853d 09f1 973d cf25 803e
000002e0: a2da 52bd 3a96 9d3d d383 07bc 464e 44bd
000002f0: ce3e 693e f91c 8cbc 1576 913c 46f5 2f3b
00000300: 0072 85be 7cd3 54be 2913 a6bc 221d 1fbe
00000310: 9026 cabd b77d 4b3d 9660 283e 55be 2fbd
00000320: 3f65 963e b4cd 633e a01a a83e f0fb a33e
00000330: 9328 e23d b8a5 653e 0fb1 c03d 1659 04be
00000340: 5b3e 51be ae16 27be 64c9 be3d 35f4 f3bd
00000350: 9062 96be c1af d1bd cb16 d43b d094 7ebe
00000360: 3fd9 b9bd d438 6ebe dce4 86be b98f 413d
00000370: b6f9 303d 748e 0d3e 9088 2d3e d4f2 29bd
00000380: 26b3 733e f595 af3c af29 b2be 4f91 d1be
00000390: 0036 453e c316 373d 2a1f aabd f757 823e
000003a0: f8e4 5c3e 0e33 56bd bc80 7f3d f9fb 9bbe
000003b0: 6d30 70be ba71 343d 3497 903e 1992 bdbc
000003c0: 1ecd c63d 753e 563e d8c0 ecbc e478 c13e
000003d0: 3f70 ce3c a9a2 1d3e 41fc 473d 69d2 99bc
000003e0: 06b3 853e d5e4 463e b989 233e b512 78bd
000003f0: 7816 adbe 7a96 b8be 0663 c0be 2709 97be

pre_layer.0.bias f4 [10]
0.0073850187 0.06978418 -0.0051189573 -0.0011596896 0.18736495 -0.009190688 0.08005665 0.0823355
-0.0041801254 -0.008875254
00000000: 07fe f13b 02eb 8e3d edbc a7bb ba00 98ba
00000010: 99dc 3f3e 8a94 16bc bef4 a33d 849f a83d
00000020: 6ff9 88bb 8369 11bc

pre_layer.3.weight f4 [16, 10, 3, 3]
-0.14425828 -0.24529405 0.13043362 -0.011774373 -0.06446437 0.08817384 0.093924224 0.15799356
0.13114753 -0.054105356 0.17825621 0.20052719 -0.072468616 -0.062159207 -0.009929603 -0.13861994
0.066954486 0.08225272 -0.31596467 -0.20383164 -0.07229902 0.010107389 -0.16042042 0.040820945
0.16594082 0.019821675 0.12328097 -0.09040006 0.18203495 0.20457694 -0.096246816 0.010999977
0.14395267 -0.25264207 0.06078515 0.02033942 -0.19175427 -0.07193505 0.23132055 -0.12158624
-0.051446978 0.1890105 -0.08206509 0.048829485 0.11534129 0.32556686 0.061428487 -0.4152689
0.19972196 0.052181635 -0.1710788 0.09990104 -0.17522922 -0.07520448 -0.43659085 -0.112606205
0.10337334 -0.4586322 -0.033351377 0.17734817 -0.33943883 0.30838543 0.62277913 -0.36102495
0.120142445 0.20605777 -0.38950688 0.019004077 0.08672162 -0.31613025 0.06377964 0.2758822
0.13618486 0.0752269 -0.12653631 -0.07295129 -0.11053269 -0.060881548 -0.12512884 -0.017755236
-0.015918845 0.04385608 -0.034581166 0.19121982 -0.17845479 0.20159961 0.06301081 -0.14921728
-0.3742645 -0.2939356 -0.2718073 -0.099991225 0.092810765 -0.031886894 0.10555173 -0.04130851
0.2015663 0.06065642 0.122746766 0.0032949517 0.028544044 -0.044974834 -0.06940073 -0.052026335
-0.051467717 -0.040084157 -0.20656702 0.042807233 -0.2576224 -0.07588322 0.25801536 -0.17201091
-0.07825525 0.2002815 0.0012465721 0.038908377 0.18801512 0.35237193 0.23403314 0.022008944
0.090409905 0.27389663 -0.23335314 0.15279834 0.16519038 -0.1628375 -0.03543511 -0.11577513
-0.18547954 -0.15368211 0.08243037 0.02150138 0.103637986 0.00046708377 0.1415445 -0.15613434
-0.2197905 -0.13179944 -0.1124372 -0.19451247 0.10537993 0.003503198 -0.20730357 0.07270623
0.118615195 0.042235523 -0.13099632 0.101336464 0.042532638 -0.011596277 0.025930233 -0.03504125
-0.20901456 -0.14643332 0.09271597 -0.202947 -0.03669643 0.14422843 0.15192465 0.07827024
0.21608984 0.016097797 -0.3724482 -0.12244786 -0.49600556 -0.19044882 -0.059029043 -0.22245935
-0.14756715 0.11408946 -0.13518704 -0.24194919 -0.099638715 -0.13988028 -0.21365957 -0.08663634
-0.057048768 -0.10213579 0.08177557 -0.07747725 0.09115215 -0.04581421 -0.16784483 0.09263055
0.20941527 0.11990361 -0.113649875 -0.13712816 -0.37272203 -0.31500807 -0.43770635 -0.26779437
0.053824082 0.16860719 0.16973059 -0.020778043 0.0082582645 -0.022811197 0.18277857 0.07902293
-0.04650502 0.0071983854 -0.22726674 -0.2480054 0.06835603 0.18618204 0.11962967 -0.31132036
-0.9065147 -0.58155334 0.12618606 -0.016605617 -0.13666755 0.15835612 0.20992878 -0.09749935
0.50375336 0.106532276 0.023769755 0.14287265 0.05973977 -0.03746888 -0.00940424 0.069455266
-0.1520368 -0.17008632 -0.17918971 0.03854348 0.051344514 0.045110848 0.26262885 -0.07646413
0.13611974 0.01897605 0.2455508 -0.011555419 -0.12062576 -0.19737992 -0.036800735 -0.15906592
-0.18052413 -0.009845774 -0.33238965 -0.11846961 -0.23062392 -0.1198373 -0.07520599 0.051665258
0.0844243 -0.18523331 -0.06122413 -0.31162202 0.097207606 0.115590654 0.17936958 -0.16714922
00000000: 71b8 13be 5d2e 7bbe 6490 053e 4de9 40bc
00000010: e505 84bd 7c94 b43d 585b c03d 10c9 213e
00000020: 8a4b 063e 949d 5dbd cc88 363e 0057 4d3e
00000030: 6d6a 94bd a79a 7ebd c6af 22bc 63f2 0dbe
00000040: 6f1f 893d 1d74 a83d 1fc6 a1be 3eb9 50be
00000050: 8211 94bd 7699 253c 4045 24be dd33 273d
00000060: 64ec 293e 1161 a23c bc7a fc3d ab23 b9bd
00000070: 5f67 3a3e 9e7c 513e 0d1d c5bd 3f39 343c
00000080: 5468 133e 4d5a 81be d9f9 783d db9e a63c
00000090: 3b5b 44be af52 93bd 4bdf 6c3e 3502 f9bd
000000a0: 11ba 52bd f88b 413e be11 a8bd 6d01 483d
000000b0: 0e38 ec3d b3b0 a63e 709c 7b3d 209e d4be
000000c0: ea83 4c3e 69bc 553d 482f 2fbe eb98 cc3d
000000d0: 4a6f 33be ce04 9abd d688 dfbe 159e e6bd
000000e0: 67b5 d33d d7d1 eabe 749b 08bd c29a 353e
000000f0: edca adbe b2e4 9d3e 746e 1f3f 43d8 b8be
00000100: 3e0d f63d cf00 533e 726d c7be 70ae 9b3c
00000110: 1b9b b13d d3db a1be e69e 823d 6f40 8d3e
00000120: 0b74 0b3e 9010 9a3d bc92 01be 7c67 95bd
00000130: f75e e2bd ee5e 79bd c621 00be 6e73 91bc
00000140: 3d68 82bc 6fa2 333d fba4 0dbd 21cf 433e
00000150: dabc 36be 2170 4e3e d00b 813d 6acc 18be
00000160: 999f bfbe ba7e 96be 542a 8bbe 33c8 ccbd
00000170: 9213 be3d d59b 02bd 812b d83d 1d33 29bd
00000180: 6567 4e3e de72 783d a862 fb3d 1ef0 573b
00000190: 33d5 e93c 8837 38bd f821 8ebd 9119 55bd
000001a0: d0cf 52bd 492f 24bd 4e86 53be a356 2f3d
000001b0: 15e7 83be a968 9bbd 971a 843e a123 30be
000001c0: 4a44 a0bd 9816 4d3e 0564 a33a 645e 1f3d
000001d0: 0987 403e 186a b43e 62a6 6f3e 1a4c b43c
000001e0: d428 b93d 2e3c 8c3e 20f4 6ebe 2b77 1c3e
000001f0: ab27 293e e0be 26be 6824 11bd 831b edbd
00000200: 59ee 3dbe d85e 1dbe 41d1 a83d a923 b03c
00000210: 2740 d43d ece2 f439 0bf1 103e aee1 1fbe
00000220: c310 61be 6ff6 06be 7a45 e6bd 472e 47be
00000230: 6fd1 d73d e995 653b 6347 54be 01e7 943d
00000240: 86ec f23d 28ff 2c3d e623 06be 7e89 cf3d
00000250: b436 2e3d 50fe 3dbc a46b d43c 6a87 0fbd
00000260: ea07 56be 9ef2 15be dfe1 bd3d 57d1 4fbe
00000270: ff4e 16bd 9eb0 133e 2392 1b3e 264c a03d
00000280: a846 5d3e 87df 833c 88b1 bebe f2c5 fabd
00000290: 71f4 fdbe 0405 43be 70c8 71bd 62cc 63be
000002a0: d81b 17be bca7 e93d 796e 0abe 87c1 77be
000002b0: 620f ccbd c73c 0fbe 93c9 5abe 656e b1bd
000002c0: f8ab 69bd 922c d1bd f379 a73d 64ac 9ebd
000002d0: faad ba3d aea7 3bbd 84df 2bbe 16b5 bd3d
000002e0: f570 563e 0690 f53d 44c1 e8bd 536b 0cbe
000002f0: 6cd5 bebe bd48 a1be 0c1b e0be 581c 89be
00000300: a476 5c3d 5da7 2c3e dbcd 2d3e b736 aabc
00000310: ac4d 073c 8cde babc 4e2a 3b3e c6d6 a13d
00000320: 0c7c 3ebd 6fe0 eb3b 9db8 68be 21f5 7dbe
00000330: 3ffe 8b3d 81a6 3e3e 6700 f53d 6265 9fbe
00000340: 5911 68bf aee0 14bf eb36 013e 8108 88bc
00000350: 94f2 0bbe 1b28 223e 92f7 563e bdad c7bd
00000360: fbf5 003f 982d da3d cab8 c23c 354d 123e
00000370: b0b1 743d f878 19bd 3e14 1abc 903e 8e3d
00000380: 89af 1bbe 1c2b 2ebe 827d 37be c5df 1d3d
00000390: a04e 523d 27c6 383d 4a77 863e 3a99 9cbd
000003a0: f962 0b3e a973 9b3c ab71 7b3e f152 3dbc
000003b0: a30a f7bd f61d 4abe 5ebc 16bd 2de2 22be
000003c0: 51db 38be 2b50 21bc fa2e aabe 32a0 f2bd
000003d0: ad28 6cbe 426d f5bd 9905 9abd f39e 533d
000003e0: a6e6 ac3d cdad 3dbe 27c6 7abd ec8c 9fbe
000003f0: c814 c73d cbba ec3d a9ac 373e 2a29 2bbe

pre_layer.3.bias f4 [16]
0.17055881 0.1364918 0.16647954 0.22653416 0.00183449 0.08094131 0.08535954 0.16708678
0.0023605162 0.005125506 0.20060523 -0.04716461 0.054787178 0.076062866 0.23301856 0.27967432
00000000: f8a6 2e3e 82c4 0b3e 9d79 2a3e 92f8 673e
00000010: 4573 f03a 8fc4 a53d fcd0 ae3d cc18 2b3e
00000020: e4b2 1a3b dcf3 a73b 756b 4d3e ae2f 41bd
00000030: 8568 603d d9c6 9b3d 6b9c 6e3e 7931 8f3e

pre_layer.5.weight f4 [32, 16, 3, 3]
0.29976565 0.02939127 0.21474238 0.16473395 0.20473506 0.09622915 0.124372765 0.10003505
-0.118059844 0.2950122 0.2505775 0.19031009 0.0010416992 0.03296272 0.041201547 0.08014864
0.04581907 -0.00829068 -0.23981865 -0.21744709 0.004776879 -0.16305313 -0.34118825 0.008025076
-0.029405752 -0.17241465 0.0837298 0.08059666 0.14748514 0.050680794 0.30764958 0.24377795
0.11052406 0.21432425 0.14879866 0.22185951 0.16240902 -0.035863716 -0.031296466 -0.063453145
-0.048934914 0.021486958 0.074715845 0.12160441 0.050433926 -0.121266946 0.036869474 -0.12239396
0.18051128 0.2899377 0.13212588 0.025012188 0.27491778 0.04771741 0.03554476 -0.008478106
0.12415372 -0.07419904 0.03090708 -0.07363289 -0.016062781 -0.035089858 0.19809686 0.033158015
-0.006534369 0.024756845 0.0760795 0.12979065 0.1609237 0.10748989 0.1542162 0.31891897
0.15829013 -0.03668912 0.134169 0.12475512 0.106813334 0.18748435 0.20459388 0.033047874
0.085194595 -0.012474637 0.24400954 0.27875647 0.033024337 0.058207154 0.040388193 0.10651293
0.13272615 0.05905304 0.17645419 0.0759204 0.09155543 -0.024035089 0.060126066 -0.009555374
0.21111687 -0.050826248 0.27056897 0.09899373 -0.0006963091 0.062040057 -0.036708012 0.14648497
0.2080121 0.006568943 0.16814284 0.2381091 0.014398693 0.19432026 0.0738638 0.08412727
0.114184014 0.17551176 0.12240513 0.21819048 0.019851552 0.23665553 0.10238249 0.19570197
0.2888777 0.08875569 0.1346751 0.17128375 0.11532128 0.05061568 0.13733287 0.14949207
0.2461101 0.17846438 0.03763856 0.18025038 -0.28134876 -0.08134975 0.08814705 0.14403832
0.14056005 0.17045683 -0.10307162 -0.15017407 -0.2196726 -0.12751704 -0.05027098 -0.27407718
-0.29520723 -0.042113315 -0.041200235 -0.23821929 -0.22795403 0.046674814 -0.35390964 0.10161379
0.33098745 -0.16834505 0.08197557 -0.02146684 -0.045898855 -0.15852684 0.006508068 -0.08494936
-0.16877437 -0.087987065 0.037825998 0.12585948 -0.14221713 0.13520285 0.29153326 -0.043314222
0.06260902 0.0835096 -0.065412134 0.14388008 0.12515365 0.1046754 -0.14860234 -0.100589134
0.19361785 -0.3165824 -0.34215555 -0.013799873 -0.16313459 -0.04139292 0.06607617 -0.079941265
0.017491354 0.0075829527 -0.0045510596 0.046944685 -0.047193564 0.1250939 0.123562105 0.17402394
0.003957105 -0.0412376 0.010282846 -0.03717193 -0.17804196 -0.07766905 -0.05829996 -0.1887636
-0.3173162 0.18501201 0.10774905 -0.010202486 0.052567273 0.04182381 -0.12896897 0.21162976
0.101345964 0.06731979 -0.035151064 -0.107610025 -0.06835486 -0.22075973 -0.27677032 -0.051581997
-0.16250086 0.07739202 0.042809095 -0.017874576 -0.10507611 -0.21417455 -0.14485838 -0.24282195
-0.020175537 0.07975937 0.022448355 -0.053501975 -0.018919278 -0.009299285 -0.01629737 -0.21929665
-0.15448748 -0.026599418 -0.26695767 -0.056818936 -0.15244842 0.06827032 -0.061042115 -0.040358692
-0.20088209 -0.15621896 -0.052340914 -0.26802006 0.007070961 0.20179778 -0.14518294 -0.052299652
0.026524093 -0.3477837 -0.2952875 0.061645582 0.15630278 -0.08289245 -0.27888376 -0.062086314
00000000: e27a 993e f6c5 f03c 6de5 5b3e 04b0 283e
00000010: 11a6 513e ca13 c53d 26b7 fe3d 2ddf cc3d
00000020: 5cc9 f1bd d70b 973e b24b 803e a6e0 423e
00000030: a089 883a eb03 073d f4c2 283d f824 a43d
00000040: c7ac 3b3d a2d5 07bc 0593 75be 73aa 5ebe
00000050: 5e87 9c3b 66f7 26be 3ab0 aebe 9c7b 033c
00000060: 55e4 f0bc 778d 30be 887a ab3d dd0f a53d
00000070: 5806 173e aa96 4f3d 3f84 9d3e eda0 793e
00000080: 705a e23d d177 5b3e ad5e 183e 242f 633e
00000090: 8d4e 263e d5e5 12bd b930 00bd b9f3 81bd
000000a0: fa6f 48bd 6b05 b03c 9f04 993d bc0b f93d
000000b0: ce93 4e3d ce5a f8bd 7204 173d afa9 fabd
000000c0: f3d7 383e b772 943e 024c 073e 5ce6 cc3c
000000d0: 06c2 8c3e 5573 433d 6297 113d c1e7 0abc
000000e0: 4e44 fe3d abf5 97bd d830 fd3c d7cc 96bd
000000f0: 1896 83bc 62ba 0fbd e7d9 4a3e b3d0 073d
00000100: 431e d6bb dece ca3c 92cf 9b3d d7e7 043e
00000110: 2fc9 243e a923 dc3d daea 1d3e 5949 a33e
00000120: cf16 223e 5547 16bd 9963 093e 9d7f ff3d
00000130: f3c0 da3d e6fb 3f3e 0f81 513e 355d 073d
00000140: 817a ae3d 6b62 4cbc a3dd 793e 2bb9 8e3e
00000150: 8744 073d a06a 6e3d 176e 253d 7323 da3d
00000160: 5de9 073e 9ae1 713d 68b0 343e 287c 9b3d
00000170: 6a81 bb3d 3ce5 c4bc c046 763d 258e 1cbc
00000180: 052f 583e 2f2f 50bd 0488 8a3e 3abd ca3d
00000190: 8388 36ba b71d 7e3d 245b 16bd 2800 163e
000001a0: 2001 553e 4a40 d73b a32d 2c3e dfd2 733e
000001b0: 7fe8 6b3c e4fb 463e e745 973d eb4a ac3d
000001c0: 4fd9 e93d 5bb9 333e 8aaf fa3d 536d 5f3e
000001d0: b99f a23c d455 723e e9ad d13d 1966 483e
000001e0: c7e7 933e 8bc5 b53d 45e8 093e 0265 2f3e
000001f0: 902d ec3d 6352 4f3d fda0 0c3e 7314 193e
00000200: 4904 7c3e 5ebf 363e e42a 1a3d 8e93 383e
00000210: f20c 90be b39a a6bd 7186 b43d c87e 133e
00000220: f9ee 0f3e 3c8c 2e3e 3717 d3bd 3bc7 19be
00000230: dbf1 60be d493 02be f1e8 4dbd d853 8cbe
00000240: 6725 97be 037f 2cbd 94c1 28bd c2ef 73be
00000250: c86c 69be 172e 3f3d a533 b5be e41a d03d
00000260: 3077 a93e a562 2cbe cfe2 a73d 3adb afbc
00000270: 7000 3cbd dc54 22be a241 d53b eef9 adbd
00000280: 30d3 2cbe 9032 b4bd 6fef 1a3d 4fe1 003e
00000290: 5ea1 11be 9e72 0a3e d943 953e 416a 31bd
000002a0: 2839 803d 1507 ab3d ccf6 85bd 4d55 133e
000002b0: 4728 003e 0e60 d63d 362b 18be ad01 cebd
000002c0: c243 463e 1717 a2be 032f afbe dd18 62bc
000002d0: c10c 27be 9f8b 29bd f152 873d 3fb8 a3bd
000002e0: 074a 8f3c 6b7a f83b 0e21 95bb 1249 403d
000002f0: 0a4e 41bd 9e18 003e 210e fd3d 5533 323e
00000300: 9aaa 813b c2e8 28bd 6279 283c 9841 18bd
00000310: a250 36be f310 9fbd f0cb 6ebd 3f4b 41be
00000320: 4577 a2be ca73 3d3e 89ab dc3d 5428 27bc
00000330: c850 573d 724f 2b3d 7110 04be 79b5 583e
00000340: 798e cf3d f5de 893d 90fa 0fbd a562 dcbd
00000350: a2fd 8bbd d70e 62be d7b4 8dbe a547 53bd
00000360: a066 26be b57f 9e3d 9758 2f3d b46d 92bc
00000370: 2532 d7bd 9350 5bbe c155 14be 51a6 78be
00000380: 2b47 a5bc e158 a33d 9de5 b73c e324 5bbd
00000390: 9afc 9abc 075c 18bc 1082 85bc 4d8f 60be
000003a0: f731 1ebe 06e7 d9bc adae 88be f9ba 68bd
000003b0: 701b 1cbe 4fd1 8b3d 4c07 7abd 284f 25bd
000003c0: 09b4 4dbe ddf7 1fbe 6d63 56bd ed39 89be
000003d0: 85b3 e73b 14a4 4e3e d6aa 14be 2938 56bd
000003e0: 0e49 d93c b510 b2be ec2f 97be 1480 7c3d
000003f0: d60d 203e 84c3 a9bd dac9 8ebe 384e 7ebd

pre_layer.5.bias f4 [32]
0.095103785 0.31966633 0.06435085 0.08937845 0.23881057 0.11721501 0.12655953 0.2723805
0.2565856 0.08823624 0.37755945 0.16873701 0.13179386 0.22613947 0.24674198 0.103117436
0.12879087 0.15940931 0.18700172 0.31921813 0.25252488 0.23647 0.27231026 0.078586996
0.13078503 0.076821685 0.25455904 0.12736951 0.3361239 0.13282007 0.17462263 0.17825684
00000000: c6c5 c23d 4eab a33e 61ca 833d 0c0c b73d
00000010: c28a 743e 6c0e f03d d298 013e 7575 8b3e
00000020: 305f 833e 34b5 b43d 794f c13e 65c9 2c3e
00000030: f8f4 063e 1b91 673e eea9 7c3e 3c2f d33d
00000040: c1e1 033e 323c 233e 617d 3f3e 8f70 a33e
00000050: f14a 813e 3125 723e 406c 8b3e 38f2 a03d
00000060: 83ec 053e b054 9d3d 9055 823e 276d 023e
00000070: 6f18 ac3e fc01 083e 46d0 323e f688 363e

conv4_1.weight f4 [1, 32, 1, 1]
-0.40735242 0.56151706 -0.38304746 -0.5922621 0.7868487 -0.547387 -0.5925417 0.78174275
0.62335634 -0.52350146 0.64625776 0.8761985 0.976567 1.0585601 0.7622305 -0.4318101
-0.3843012 -0.49477863 -0.36766642 0.3303731 0.90901625 0.5158279 0.5667147 -0.38013965
-0.5178074 -0.66672194 0.45778325 -0.29814857 0.5140678 -0.4924235 -0.42936012 0.36139822
00000000: 7f90 d0be 95bf 0f3f cc1e c4be 7d9e 17bf
00000010: eb6e 493f 8e21 0cbf d0b0 17bf 4b20 483f
00000020: 4894 1f3f 3104 06bf 2671 253f 8b4e 603f
00000030: 4b00 7a3f e67e 873f 8a21 433f 3716 ddbe
00000040: 20c3 c4be a053 fdbe c63e bcbe aa26 a93e
00000050: 4ab5 683f 4c0d 043f 3714 113f aaa1 c2be
00000060: 078f 04bf 4aae 2abf 9162 ea3e eea6 98be
00000070: f399 033f ef1e fcbe 17d5 dbbe 3009 b93e

conv4_2.weight f4 [4, 32, 1, 1]
0.058976647 0.043829292 0.0001595001 -0.00545616 -0.07277271 0.02817605 0.005498419 -0.055821415
-0.086025886 -0.039822914 -0.07122706 -0.03993797 0.04370744 0.14017 -0.030203572 0.0115356855
-0.12382682 0.10387756 0.11490268 0.028444283 -0.08798244 -0.011450259 -0.020292379 0.026114885
-0.06962072 -0.0021916516 0.19692776 -0.05438764 -0.032066055 0.0006999376 -0.037790887 0.0878573
-0.036083993 -0.020010136 -0.024359357 -0.03663086 -0.042057555 -0.01367342 -0.022237582 0.013208682
0.018452855 -0.018226342 0.044449035 -0.012044271 -0.05154107 -0.024283297 0.022053251 0.0113075655
-0.102896824 -0.036322776 0.047529675 -0.06281073 0.021896658 0.003083791 0.013202963 0.12737513
-0.008215024 -0.029220449 0.052430052 0.11430369 0.045394696 -0.02938188 0.025147637 -0.05131715
0.0062245266 0.09216089 -0.015459073 -0.027625874 0.058648676 -0.13818626 0.03828417 -0.0071509997
-0.07232468 0.057291593 -0.121842556 -0.0018496932 0.04858749 0.052004512 -0.04610738 0.012297327
-0.2060831 0.050723504 0.15055566 0.1597138 -0.04102253 -0.041241586 0.011291464 0.1856482
-0.06144231 -0.009626377 0.023943089 0.011766663 -0.1485414 -0.012480172 -0.04930172 0.03686873
-0.06201693 -0.051422175 -0.03102889 -0.040625528 -0.05092585 0.14966929 -0.019188546 0.053813487
-0.011247963 -0.062357973 0.08463738 -0.012912713 -0.049323954 0.004909755 0.05288682 0.022496844
-0.09554818 -0.024003612 0.07383023 -0.14783512 -0.04165887 -0.008440236 0.024052234 0.03367349
-0.030313773 -0.03936843 0.047962435 0.099730834 0.11746552 -0.034683973 0.03391247 -0.046095587
00000000: 7f91 713d 5886 333d 7b3f 2739 96c9 b2bb
00000010: dc09 95bd 76d1 e63c 152c b43b ffa4 64bd
00000020: 572e b0bd 5a1d 23bd 7edf 91bd ff95 23bd
00000030: 9306 333d b988 0f3e 7b6d f7bc 2c00 3d3c
00000040: ea98 fdbd c2bd d43d 1952 eb3d fc03 e93c
00000050: 2330 b4bd de99 3bbc 343c a6bc e2ee d53c
00000060: 4f95 8ebd d0a1 0fbb 6ea7 493e 93c5 5ebd
00000070: b257 03bd 047c 373a 9eca 1abd 87ee b33d
00000080: cfcc 13bd 4cec a3bc 468d c7bc 3e0a 16bd
00000090: 8b44 2cbd 7b06 60bc 972b b6bc 3a69 583c
000000a0: 712a 973c 694f 95bc 3110 363d 5655 45bc
000000b0: bb1c 53bd c4ed c6bc 05a9 b43c 5e43 393c
000000c0: 92bb d2bd 31c7 14bd 7aae 423d e9a2 80bd
000000d0: 9f60 b33c 6d19 4a3b 3e51 583c a06e 023e
000000e0: 4f98 06bc b95f efbc e5c0 563d 0e18 ea3d
000000f0: caef 393d 45b2 f0bc 6b02 ce3c ef31 52bd
00000100: 1df7 cb3b d9be bc3d 0d48 7dbc a84f e2bc
00000110: 9839 703d b380 0dbe ddcf 1c3d ef52 eabb
00000120: f61e 94bd 97aa 6a3d 9788 f9bd 6871 f2ba
00000130: ad03 473d af02 553d 18db 3cbd ba7a 493c
00000140: 7307 53be 73c3 4f3d 432b 1a3e 048c 233e
00000150: 3e07 28bd f0ec 28bd d5ff 383c 901a 3e3e
00000160: efaa 7bbd f4b7 1dbc 4c24 c43c f6c8 403c
00000170: 3d1b 18be a379 4cbc 9af0 49bd aa03 173d
00000180: 7705 7ebd 0fa0 52bd 4c30 febc f466 26bd
00000190: a097 50bd e842 193e 4c31 9dbc 886b 5c3d
000001a0: 6049 38bc 136b 7fbd 5d56 ad3d d88f 53bc
000001b0: ea07 4abd 03e2 a03b da9f 583d 4d4b b83c
000001c0: c4ae c3bd 39a3 c4bc 4e34 973d 1762 17be
000001d0: 7ea2 2abd ea48 0abc 3109 c53c 37ed 093d
000001e0: 9754 f8bc ca40 21bd 4274 443d ae3f cc3d
000001f0: c391 f03d c810 0ebd cde7 0a3d bace 3cbd

conv4_2.bias f4 [4]
0.075550795 0.032846738 -0.12416206 0.038207993
00000000: 60ba 9a3d 4d8a 063d ae48 febd fc7f 1c3d

conv4_3.weight f4 [10, 32, 1, 1]
0.16016471 -0.35043666 0.041603312 -0.13188961 -0.12520283 0.112120524 0.20938458 0.17267191
0.19047678 -0.13507992 -0.32677972 0.09009636 -0.14512822 -0.05105739 -0.153931 -0.12182978
0.04400133 0.037086 0.36757976 -0.15234633 -0.27729914 -0.32203594 0.27283722 -0.32292384
-0.17187282 -0.10719028 0.038848307 -0.0012970973 -0.00469781 0.36520454 0.012885906 -0.19290388
0.18313299 -0.31669587 -0.099024065 -0.30743557 0.1792568 0.3518892 0.18038903 0.22448543
-0.15669982 0.30396986 -0.30201012 -0.07623238 -0.34648407 -0.0013656514 -0.1988193 0.04262939
-0.26771015 0.056262612 -0.28177994 0.30970985 0.10238211 0.16418955 0.21523696 -0.28926313
-0.20693363 0.34960827 0.32549888 0.080452204 0.31628215 -0.11260301 -0.07170531 -0.28698888
0.16122648 -0.34893933 0.11185766 0.3706184 0.08784415 -0.30420297 -0.23935466 0.09971289
0.05275376 0.11785662 0.05319793 0.35008612 0.18254563 -0.21406253 -0.066086926 -0.11085082
0.05795472 -0.11446751 0.16993769 0.24579102 0.35854614 0.10748998 0.3543594 0.30061916
-0.23093553 0.030492105 0.1499656 -0.2042183 0.14984241 0.016346544 -0.051973443 0.16967487
0.33746898 0.37104678 -0.044052016 -0.29136017 0.21968728 -0.04962109 -0.1717773 -0.14042678
-0.016661514 -0.27534232 0.3439449 -0.026132695 0.3771888 0.0977786 -0.07199282 0.07069658
0.046220966 -0.3693523 0.22755808 0.3352182 0.22771421 0.22941546 -0.23365384 -0.040266518
-0.17026272 -0.20223223 0.033336636 0.019789385 -0.092791684 0.3424585 0.2572425 0.2840143
-0.14409779 -0.2433288 0.27496707 0.27776974 -0.12842913 -0.038975075 -0.35152584 -0.07026061
0.30934423 0.23641749 -0.119949736 -0.054452587 -0.2588017 0.12524617 -0.2653966 -0.17711909
-0.30509296 0.14201324 -0.3613823 0.02506987 -0.37320125 0.054038737 0.051957652 -0.025392815
-0.2936477 -0.015614933 0.18733478 -0.082833596 -0.29554972 0.15161698 0.044694934 0.3499506
0.090558015 0.25182834 0.2448674 0.16391462 -0.21964692 0.27482808 -0.26921332 0.24149571
0.24221706 -0.049624607 0.039425395 -0.18946482 0.3067299 0.26749244 -0.12118484 0.11262065
-0.114240736 -0.14871472 0.049837455 0.25881287 0.24561544 0.08522891 -0.09373535 0.104656175
0.047346484 0.37023672 -0.15905683 0.30890265 0.12673995 0.2097275 0.3118336 -0.05575171
0.06884474 0.1911652 0.05153033 0.36180514 0.2049981 -0.042575683 -0.14228155 0.18867928
-0.33400795 -0.08025526 -0.05877311 -0.13388763 0.06320002 -0.10767356 0.3375625 -0.13616781
-0.11804417 -0.3270855 -0.18997498 0.026042018 -0.24481353 0.03311383 0.21040282 0.101510756
0.10388674 0.03377801 0.09170412 0.32206172 -0.12729298 0.3586353 -0.122412026 0.041487336
0.1305322 -0.025238946 -0.36699644 0.2585259 -0.21868853 -0.18102533 0.3347588 0.3494048
0.12116749 0.09001453 0.04274541 0.044139877 0.0004384935 -0.20799704 -0.25563267 0.2763573
-0.35318196 0.22246188 0.28473243 0.13051417 -0.34498087 -0.045913767 -0.12993455 0.3244636
-0.068884596 0.14962333 0.2135377 0.22921419 0.1855215 -0.22539632 -0.22031564 -0.28829023
00000000: 3802 243e 6f6c b3be 3c68 2a3d 120e 07be
00000010: 2c35 00be 729f e53d e968 563e e8d0 303e
00000020: 580c 433e 6452 0abe ac4f a7be 7184 b83d
00000030: 7e9c 14be 8e21 51bd 17a0 1dbe e481 f9bd
00000040: bd3a 343d 7de7 173d 6a33 bc3e ad00 1cbe
00000050: 27fa 8dbe e5e1 a4be 52b1 8b3e 4656 a5be
00000060: 6eff 2fbe 9486 dbbd 671f 1f3d 5d03 aaba
00000070: 16f0 99bb 17fc ba3e 681f 533c 9888 45be
00000080: 3787 3b3e f625 a2be 21cd cabd 3268 9dbe
00000090: 188f 373e d22a b43e e7b7 383e 82df 653e
000000a0: eb75 20be f0a1 9b3e 12a1 9abe b91f 9cbd
000000b0: 5c66 b1be a8ff b2ba 4997 4bbe 289c 2e3d
000000c0: 4e11 89be a073 663d 7645 90be 4a92 9e3e
000000d0: b6ad d13d 4e21 283e 1467 5c3e 4c1a 94be
000000e0: 69e6 53be dbff b23e caa7 a63e 20c4 a43d
000000f0: bcef a13e 689c e6bd 3cda 92bd 35f0 92be
00000100: 8e18 253e 2da8 b2be a115 e53d b2c1 bd3e
00000110: a2e7 b33d 7ec0 9bbe 6319 75be 4636 cc3d
00000120: 5414 583d d05e f13d 13e6 593d 7d3e b33e
00000130: 3eed 3a3e 3533 5bbe 9558 87bd c105 e3bd
00000140: ee61 6d3d f16d eabd 2504 2e3e a4b0 7b3e
00000150: 5c93 b73e b523 dc3d 986e b53e c1ea 993e
00000160: 5d7a 6cbe 94ca f93c 9590 193e 9a1e 51be
00000170: 4a70 193e 30e9 853c 1be2 54bd 40bf 2d3e
00000180: bcc8 ac3e d8f9 bd3e e36f 34bd 292d 95be
00000190: b4f5 603e 7c3f 4bbd 63e6 2fbe 0acc 0fbe
000001a0: ba7d 88bc abf9 8cbe 8c19 b03e 3c14 d6bc
000001b0: e41e c13e 2640 c83d f970 93bd 5ec9 903d
000001c0: 3252 3d3d bf1b bdbe fc04 693e b8a1 ab3e
000001d0: ea2d 693e e3eb 6a3e f442 6fbe 81ee 24bd
000001e0: 5a59 2ebe f715 4fbe ff8b 083d 591d a23c
000001f0: 9109 bebd b856 af3e 4ab5 833e 536a 913e
00000200: 5f8e 13be 2f2b 79be 7cc8 8c3e d637 8e3e
00000210: ed82 03be 54a4 1fbd 32fb b3be cbe4 8fbd
00000220: 5e62 9e3e 6d17 723e 35a8 f5bd ad09 5fbd
00000230: a881 84be 8840 003e 10e2 87be b55e 35be
00000240: 2535 9cbe eb6b 113e 1a07 b9be 545f cd3c
00000250: 3c14 bfbe b957 5d3d 8cd1 543d 9804 d0bc
00000260: fe58 96be c7d5 7fbc b0d4 3f3e a9a4 a9bd
00000270: 4b52 97be 7b41 1b3e 0912 373d ba2c b33e
00000280: 7b76 b93d a5ef 803e 85be 7a3e 3cd9 273e
00000290: 1feb 60be 44b6 8c3e 54d6 89be a74a 773e
000002a0: c007 783e 2c43 4bbd 867c 213d 1103 42be
000002b0: b40b 9d3e c5f4 883e c22f f8bd a8a5 e63d
000002c0: 0cf7 e9bd ac48 18be 5c22 4c3d 1f83 843e
000002d0: 9d82 7b3e 7f8c ae3d 52f8 bfbd fa55 d63d
000002e0: 63ee 413d ab8f bd3e cbdf 22be 7d28 9e3e
000002f0: 1ec8 013e cec2 563e a7a8 9f3e e85b 64bd
00000300: 79fe 8c3d cfc0 433e 7811 533d 863e b93e
00000310: 06eb 513e d763 2ebd 41b2 11be 2435 413e
00000320: 1703 abbe df5c a4bd 13bc 70bd d719 09be
00000330: 036f 813d f583 dcbd fed4 ac3e 936f 0bbe
00000340: 24c1 f1bd c077 a7be cd88 42be 1256 d53c
00000350: 66b0 7abe 5ea2 073d d673 573e dfe4 cf3d
00000360: 92c2 d43d d05a 0a3d 5fcf bb3d 46e5 a43e
00000370: 1759 02be 0c9f b73e 28b3 fabd a0ee 293d
00000380: 3caa 053e e8c1 cebc f5e6 bbbe 825d 843e
00000390: e3ef 5fbe b45e 39be 8165 ab3e 30e5 b23e
000003a0: a926 f83d 8a59 b83d d015 2f3d 04cc 343d
000003b0: 9ae5 e539 2dfd 54be 49e2 82be b47e 8d3e
000003c0: 44d4 b4be 0ccd 633e 73c8 913e 82a5 053e
000003d0: 55a1 b0be 1310 3cbd 900d 05be 1820 a63e
000003e0: 5e13 8dbd dc36 193e a0a9 5a3e 20b7 6a3e
000003f0: 59f9 3d3e 4bce 66be 6c9a 61be c79a 93be

conv4_3.bias f4 [10]
0.1 0.1 0.1 0.1 0.1 0.1 0.1 0.1
0.1 0.1
00000000: cdcc cc3d cdcc cc3d cdcc cc3d cdcc cc3d
00000010: cdcc cc3d cdcc cc3d cdcc cc3d cdcc cc3d
00000020: cdcc cc3d cdcc cc3d
