week4 mtcnn face detection/Step1-face detection/weights/RNet.pth (torch_old, 243416 bytes, 13 tensors)

pre_layer.0.weight f4 [28, 3, 3, 3]
00000000: c8ab 173e 4e4f d43c 96c3 4f3e c793 c3bd
00000010: d189 10be e36e 10be 0297 b1bd 8e08 8fbd
00000020: 22d4 5ebe 077f 12be 7e26 ddbb 5dcb 533e
00000030: a1c1 be3d a545 a8bd 60a6 bf3d 865b 36bd
00000040: f245 5b3d fe64 e8bd 4bdb 9bbd 8f7c 45be
00000050: cf94 133c f7e1 dabc fa6e df3c 1734 d1bd
00000060: a3f5 6d3e dd0e 7a3e 9fd4 043e 254e 39be
00000070: cefa 073e c557 213d 7a62 21be 59fc acbd
00000080: 5d94 773e c9f1 95be 0049 bbbd fb8b 4a3e
00000090: 5903 80be 8e93 793e 904e 373e 89a7 69be
000000a0: 6ecf 583c e374 973e ccb8 20be 9f5b 5a3d
000000b0: ded4 2d3e d0c1 67be 4889 1ebd 37f6 4e3e
000000c0: fdb4 acbe 11e4 cb3d 5afa 183c 9a06 98bd
000000d0: 1a9b 4a3d bfd1 3b3e a9fc 02be e48c e73c
000000e0: 7447 3fbd 96cc 0abe 3454 72be 90f3 6b3e
000000f0: 65a3 913d 3e54 2dbe 2cef a13d e480 04ba
00000100: d5c6 45be 0827 243e 74c4 9fbd 51ec febc
00000110: 4d96 8b3e 3559 85bd 2004 d4bd bd2b 7d3e
00000120: 1257 c63d 59ae 6bbe 0b79 623d f0a6 863d
00000130: 1e73 7fbe 02e4 363b 296f 60bd 895f 54be
00000140: 0481 9a3e a5d5 73bc d7dc 7e3d ece7 cbbc
00000150: 8251 533e 4c80 733d b10c e6bb a893 2c3e
00000160: 2a87 873d f725 733d a9a7 36be 84f3 84be
00000170: 4484 a33c 4d08 67be bfcb b2be 2bfb cbbd
00000180: 51bf 1ebe 839e 82be e00b 66be 8860 82bb
00000190: c1df 543e 54fe 253e 82b4 443d b516 aa3d
000001a0: 0dee c33c 9a74 593d 7f16 803e a2e7 de3c
000001b0: 87c1 663d 6ef0 243d 392b af3d f86e 473e
000001c0: 83cf 593d fde2 36be b97a 0c3e ce28 59be
000001d0: 38f1 acbd 5bd7 b43d 1eb5 3ebe 924f 95be
000001e0: ee95 593e f251 89be 280c b5bd 4b72 3c3d
000001f0: 307f 10bd b9a3 2d3c b009 5b3e 8ad9 e1bd
00000200: d9f5 b9bc df5e 6e3e ee40 25bd 0808 a7bd
00000210: cf0f 443e 24d7 d3bd 46ac 66bd f89f 9ebe
00000220: c1c5 90be 0772 80be 1d30 523d dc01 cabc
00000230: 25a9 8c3d 8983 9f3d f3e3 933e e248 833e
00000240: 61a1 8abe 367a 85be 8f42 abbd 2be7 e43d
00000250: 6a06 e03c 1a93 713e fad8 123e 13a1 e53d
00000260: 3c63 463e ac7e e2bd c03d 5ebe 6d64 cabd
00000270: 018b 39be 9a72 2a3a 793c 0bbd 96cc 463e
00000280: c9a9 413e de4d 083e a2f2 2e3d 3533 1f3e
00000290: a299 5f3e ea1f 213e f86c f73c e4ce d8bd
000002a0: 8c70 a1be b3c8 89be 9bca 97be 898c 053e
000002b0: 1ce2 e93d 3202 363e b826 983e 69b6 85bc
000002c0: 795f d43d c9cf 8fbd dcf3 133e c24d a9bd
000002d0: 69e4 0bbe 1a53 d9bd 8232 f4bc 56ea 25bd
000002e0: 4780 6a3d 40e4 35bc c1ea 61be a1c9 d7bc
000002f0: f45e 303d 20cc d4bd 4eb8 34be b8c6 34bd
00000300: 8262 cf3c 245f 28be a354 c23c 071a 0dbe
00000310: fddd 8cbc ff22 b43d bc66 91bd a8c9 babc
00000320: 7351 af3d fe09 efbc 3d08 573e cf00 193e
00000330: 3feb bd3d 74fb e2bb 9135 b2bd 5b1f 33bd
00000340: c874 933d 38b5 09be aa01 04bc b929 e93c
00000350: 8dfe be3c 09c0 e93d 6aa7 f4bd 1c5c 28be
00000360: 7d7d a2be c2b5 b5bc 94f3 5a3e 8852 91be
00000370: 3fa6 8a3d bf12 203e e60e 04bd e1ac 273d
00000380: 1786 2b3e a710 39bd b626 533c 2066 ed3d
00000390: 89ed 02be 3513 f53d f466 72bd 9e71 903d
000003a0: 5791 173e 5591 65bd 37d8 3fbe c11a 24be
000003b0: bec6 52bd dcc4 0f3d a9c9 d53d a611 18be
000003c0: ab00 653e 42ff 8bbd 0d05 13be 4b74 793d
000003d0: 1861 d9bd 18e4 0bbe 21a3 e93b e6a9 753e
000003e0: 427b 673e 4f54 41be 5138 dfbd 5bbf d73d
000003f0: 0922 433c b1ca 553d d4b8 9ebe bcb7 073e
0.14811623 0.025916722 0.20289454 -0.09549671 -0.14115073 -0.141048 -0.086713806 -0.069840536
-0.2176061 -0.1430627 -0.0067489734 0.20683046 0.093142755 -0.08216409 0.093579054 -0.044520877
0.053533502 -0.11347388 -0.07610186 -0.19285797 0.009007647 -0.026719077 0.027274597 -0.102150135
0.23238234 0.24419732 0.12971734 -0.18096216 0.13279268 0.039390344 -0.15760222 -0.08446569
0.2417769 -0.2928603 -0.09144783 0.19779961 -0.25002554 0.24372694 0.17901063 -0.22817816
0.013233049 0.29581365 -0.15695494 0.053310033 0.16975734 -0.22632527 -0.03870514 0.20211111
-0.33731833 0.099556096 0.009337032 -0.07423134 0.049464323 0.1834173 -0.12791695 0.028265424
-0.046699002 -0.13554606 -0.23664933 0.2304213 0.07111243 -0.16926667 0.079069465 -0.00050546066
-0.1931413 0.16030514 -0.07801142 -0.031118544 0.27263108 -0.065111555 -0.10352349 0.24723716
0.09684576 -0.23015727 0.055291217 0.065748096 -0.24946257 0.00279069 -0.05479351 -0.20739569
0.30176556 -0.01488248 0.062222328 -0.024890862 0.20636562 0.059448525 -0.007020556 0.16853201
0.066175774 0.059362378 -0.17837395 -0.25967038 0.01996053 -0.2256176 -0.3492107 -0.09960016
-0.15502669 -0.2551156 -0.22465467 -0.0039787926 0.2078848 0.162103 0.04802371 0.08305112
0.023917222 0.053089716 0.25017163 0.02721006 0.056336906 0.040268354 0.08553166 0.19475925
0.053176414 -0.17860027 0.1371869 -0.21206972 -0.08444446 0.08830138 -0.18623778 -0.2916227
0.212486 -0.26820332 -0.08840209 0.046007436 -0.035277545 0.010598117 0.21390414 -0.110278204
-0.022700237 0.23278378 -0.040345125 -0.08155829 0.19146655 -0.10343769 -0.056316637 -0.3098142
-0.28275874 -0.25086996 0.051315416 -0.02465909 0.06868199 0.0778876 0.2888485 0.25641543
-0.27076247 -0.26069802 -0.083623044 0.11176904 0.027346808 0.23591271 0.14340582 0.11212363
0.19373792 -0.11059317 -0.21703243 -0.09882436 -0.18119432 0.00065020623 -0.033993218 0.19413981
0.18912424 0.13310954 0.04271186 0.15546878 0.2183595 0.1573483 0.030203328 -0.10586336
-0.3153118 -0.26910934 -0.29646763 0.13041891 0.1142008 0.17774275 0.2971704 -0.016322332
0.103697725 -0.07022054 0.14448494 -0.08266784 -0.1366135 -0.106115535 -0.02980924 -0.040506683
0.05725124 -0.011101782 -0.22062208 -0.026341261 0.043059304 -0.10390496 -0.17648432 -0.044134825
0.025315527 -0.16442543 0.023721999 -0.1377946 -0.017195696 0.087957375 -0.07099673 -0.022801235
0.08560457 -0.02917957 0.20999236 0.14941715 0.09273385 -0.006926948 -0.08701623 -0.043731075
0.07200009 -0.13448036 -0.008057037 0.028462278 0.023314739 0.11413581 -0.11945994 -0.16441387
-0.31736365 -0.022181395 0.2138198 -0.2838328 0.0676999 0.15632151 -0.03224077 0.040936355
0.1675037 -0.045181897 0.012887647 0.115917444 -0.12785925 0.11966554 -0.059180215 0.07052921
0.14801537 -0.056046803 -0.18734823 -0.16025831 -0.051459067 0.03509985 0.10438854 -0.14850482
0.22363536 -0.06835796 -0.14357395 0.06090192 -0.10614222 -0.1366123 0.007130042 0.23990592
0.22605613 -0.18879817 -0.108994134 0.10534545 0.01190997 0.052195255 -0.31000388 0.13253683

pre_layer.0.bias f4 [28]
00000000: 5c6a 663d 208c 9e3c 1025 953d 6162 b8bc
00000010: f8e8 77bd 09b7 e93c 4987 543d b6e5 ab3d
00000020: 83a9 f83c a45e 583b 8327 2a3d 898f 113c
00000030: 3205 193e 9b54 0bbc 5b0c db3b 0081 33bd
00000040: f735 3ebd b960 b03d 9c37 c5bc a6cc 4bbc
00000050: d026 363a e2d1 79bb 8104 0d3d 79b3 583d
00000060: 09ee 0d3d bc05 c23b a22f f13c 2312 f83d
0.056253776 0.019353926 0.0728246 -0.022507848 -0.06052491 0.02852966 0.05188683 0.08393423
0.030354267 0.0033015395 0.041541588 0.008884319 0.14943388 -0.008504058 0.0066848225 -0.043824196
-0.046438184 0.086121984 -0.024074368 -0.012438929 0.00069485325 -0.0038119485 0.034428123 0.052905533
0.034650836 0.0059210937 0.029441658 0.12112834

pre_layer.3.weight f4 [48, 28, 3, 3]
00000000: 9cb5 c9bd 753b cfba 7e1a 053d 19bd 78bd
00000010: e4ba 4abd 2feb 153d 3afb a03d fee4 603c
00000020: 68ac e43d 5c1d 79be 7d4a a5bd 4234 593e
00000030: e283 b93c 15a0 e03c 6ad1 333e 7b2c 103e
00000040: a160 d93c 6b23 ab3c d62d 19be 6ad9 383e
00000050: f0a8 3f3e 2de1 07be b952 113d c506 923d
00000060: 81fc f13d cff6 623d 1711 9abd 58b1 e0bd
00000070: 9a07 4cbd 442b 6a3e ec65 2cbe 978c 32be
00000080: c8d2 273d 9cb8 22be b3c4 32be 3f87 edbc
00000090: 3983 8ebd e78e 173e e40a e93d c223 fbbd
000000a0: 4469 ff3d 3f28 26be 7ac5 6d3d fe6c 98bd
000000b0: c6f8 a63d e564 41bd 64d3 7dbe 396a b63d
000000c0: 5a60 dbbe 6dfb 0ebe 8d5e bf3c d154 9bbd
000000d0: 5d69 223e ef50 423d 9a31 083c b0ae b6bd
000000e0: c7a4 33be efec 9d3c 4371 c93d a0e5 c5bd
000000f0: 9890 1b3e 3110 c43c ba91 153e 91c4 f8bd
00000100: 0c8a 713d de5b b13d d797 0fbd 65cd 113e
00000110: ad84 2e3e e8ab c7bd d9a2 0b3d 1186 d73d
00000120: 2167 58be 3b8a 2ebb 0876 4c3e 8d60 4ebe
00000130: 43da d43d a5f8 363d 1a4a 37bd 16e3 883d
00000140: 082f 463d 3fa5 43be c22f f73d 2060 04bd
00000150: 1956 8cbd e78e b6bc 0257 b0bd 8cce 20be
00000160: d023 a33d 3ebb f0bc 8d82 d03d fa33 fe3c
00000170: fd0e b7bd f5cf c2bd 59fb 1abe 07e8 563d
00000180: a58e 97bd 4df8 483d 1d81 173e e1d1 35be
00000190: a8aa f33d 6cdb 0a3d e4f5 84bd 72c8 dd3c
000001a0: 1f77 553e 6d7d 53bd 352e df3c 06d6 6d3e
000001b0: f180 43be 4e0d 973d beaf 1b3e 5cca 0cbe
000001c0: 487e 2dbd 499b 873d a590 4e3d 23c9 c23d
000001d0: afda ef3d 1266 e4bd 8aa1 a1bb 3ebd 4f3e
000001e0: f5ae fdbc 537b c7bd 940d 8a3d 180f c4bd
000001f0: 9606 c8bd 7a73 c83d dbdc dbbd 7d90 32be
00000200: 8cf0 35be eae5 68bd d982 46be 5a68 b4be
00000210: 783a 01bd b919 a2bd 6d74 253c 0f24 fdbd
00000220: 30bd b83d 4f93 403d dde2 bfbd 1792 2f3d
00000230: 8701 12bd f8e5 493d 07fa de3d 36c4 7fbd
00000240: 5a21 19be fa1a f5bd 7b00 7abd 361c a9bd
00000250: 45c8 aabd 9342 98be 8100 b93c 1f6b 9bbd
00000260: 6772 31be 231a 8fbe d204 cfbd 3c90 153e
00000270: bb92 02be 7fae 053c 57a0 893d 3e59 8b3d
00000280: a608 b03d a607 363d e684 86bd 671f 83bc
00000290: e7e9 acbc 2190 70be 3279 40ba 5467 1abe
000002a0: ad1c 5d3c b473 d2bc b20c fcbc 595e 03be
000002b0: 9c61 46bc 456a 8c3d fbac 2fbe 6727 38be
000002c0: 87e1 ecbd 7e55 86bb b941 a7bd 2547 633d
000002d0: e50b 23bc ddcc b43d 9574 063e 8a49 8dbd
000002e0: 567d 61bc 972c 4a3d bf87 acbb b712 be3c
000002f0: 26c8 b5bd 9549 1bbe 3e51 00be 3483 19be
00000300: b358 02be ce26 98bc 6b83 60be 3edc d7bd
00000310: 7a8b 06be c540 b8bd 1cce 42bd 93b8 003e
00000320: 74a8 173e 6ee1 963c 6bd7 7cbd 19ea d13d
00000330: 60f3 213e 1be9 fb3d 060b 383e a00e efbd
00000340: 1047 cb3d b3c3 0d3e 90c3 9cbd 4840 223d
00000350: 3f67 a03d fa0e f3bd 95bc 653e cb9b 7e3d
00000360: 2e8d 56be 76e7 d1bd f1ab fc3a 4ded 88be
00000370: 5f7d 9e3d 4e38 143e 0b25 87bd 10b1 0d3e
00000380: 02b8 053c cc34 afbd 3cc7 c53d cb48 18bd
00000390: 92f8 88bd 6673 0d3e a915 60bd a863 dd3d
000003a0: 2587 0a3e fb6e db3c c288 0b3d d133 913e
000003b0: f66e 453e 8653 893c 74d2 dd3d e473 3eba
000003c0: 62ad 503c ebe2 5d3e 3e6c ce3d 9c1e a6be
000003d0: 187b a1bb b580 973d 8e00 15be 4cb6 41bd
000003e0: 6a7b 0f3e a59f f9bd c449 383e b9cc 8b3d
000003f0: 3846 d7bd 8930 50ba 2b40 da3d 620d d2bd
-0.09849092 -0.0015810566 0.032495968 -0.060727213 -0.04949464 0.03660124 0.07860418 0.013726471
0.111656964 -0.24327606 -0.08070848 0.21211341 0.022645894 0.027420083 0.17560354 0.14079468
0.026535334 0.020890912 -0.14958891 0.18051687 0.18716788 -0.13269491 0.03547928 0.071301974
0.118157394 0.055411156 -0.07522791 -0.10971326 -0.049811937 0.22868067 -0.16835755 -0.17436443
0.0409725 -0.15890735 -0.17457847 -0.028995154 -0.069586225 0.14800607 0.1137903 -0.1226268
0.1247125 -0.1622629 0.058049656 -0.074426636 0.081529185 -0.04721536 -0.2478767 0.08906979
-0.42846948 -0.13963099 0.023360515 -0.07584537 0.15860505 0.047440466 0.008312607 -0.08920038
-0.17543326 0.019278018 0.09836056 -0.09662938 0.15191877 0.023933502 0.14606372 -0.12146867
0.058969542 0.086601004 -0.035056915 0.14238508 0.170428 -0.097495854 0.03409085 0.10523618
-0.2113309 -0.0026632685 0.199669 -0.20154019 0.103931926 0.04467072 -0.044748403 0.06683938
0.048384696 -0.19106005 0.12069656 -0.032318234 -0.06852359 -0.022284938 -0.086103454 -0.15703791
0.07965815 -0.029386159 0.101811506 0.031030644 -0.08938406 -0.09512321 -0.15134944 0.052467372
-0.07400254 0.049064923 0.14795347 -0.17755844 0.118977845 0.033900663 -0.064922124 0.027073119
0.20846222 -0.051633287 0.027243713 0.23226175 -0.19092156 0.073755845 0.15203759 -0.13749069
-0.04235676 0.06621415 0.050430913 0.0951102 0.117116325 -0.11152281 -0.004932587 0.20287034
-0.030967215 -0.09740319 0.06740871 -0.095731914 -0.09766881 0.097876504 -0.10735484 -0.1743793
-0.17767543 -0.056859888 -0.19385852 -0.35235864 -0.0315499 -0.079150625 0.010098559 -0.12360393
0.0902046 0.047015484 -0.093694426 0.04286393 -0.035645988 0.04929158 0.10887533 -0.06244298
-0.14954129 -0.11968036 -0.061035614 -0.08257334 -0.0833898 -0.29738292 0.022583248 -0.07588791
-0.17328797 -0.27949628 -0.10108341 0.14605802 -0.12751286 0.008159279 0.067200355 0.06804131
0.085953996 0.044440888 -0.06568317 -0.016006185 -0.021107627 -0.23492481 -0.0007342278 -0.15078479
0.013495606 -0.025689937 -0.030767772 -0.1282896 -0.012108233 0.06856207 -0.1715583 -0.17983781
-0.115664534 -0.004099547 -0.081668325 0.05548777 -0.009951566 0.08828137 0.1313041 -0.06898792
-0.013762793 0.04935893 -0.0052652056 0.023202283 -0.08876066 -0.15164788 -0.12530991 -0.14991456
-0.12729149 -0.018573191 -0.21925132 -0.10540055 -0.13139144 -0.08996729 -0.047559842 0.1257041
0.14810354 0.01841804 -0.061728876 0.10249729 0.15815496 0.12300321 0.17972955 -0.11672711
0.099256635 0.13844185 -0.07654488 0.039612085 0.07832193 -0.11868091 0.2243522 0.062160295
-0.20952293 -0.10249226 0.0019277317 -0.26743546 0.077387564 0.14474604 -0.06598862 0.13837075
0.008161547 -0.08554992 0.096571416 -0.037178796 -0.06688036 0.13813552 -0.054708157 0.108100235
0.13528116 0.026786318 0.03406597 0.28359845 0.1928061 0.01676346 0.108311564 -0.0007265194
0.01273665 0.21668594 0.10079239 -0.32445228 -0.004928004 0.07397596 -0.14550993 -0.047292992
0.14011922 -0.12188653 0.1799689 0.06826157 -0.1051144 -0.00079418026 0.1065677 -0.10256459

pre_layer.3.bias f4 [48]
00000000: 7865 8b3d 9e74 283e 8733 df3d 3de0 02be
00000010: 0f34 6a3d dd09 d23b 8c92 1f3d 5dd4 a03d
00000020: 4ff9 413d 78eb 0f3e 8819 26be 4946 dc3d
00000030: f9ea 053d 7d3f 863d b2ea 78bc fa6b 16be
00000040: bc10 9abd 5902 98bd 5ab4 7c3d 6931 c43d
00000050: d90b eebc aadc 993d a8a2 5abd 6662 ef3d
00000060: 747e 4bbd 7666 febd d53b 99bd 34ff 723d
00000070: 8765 e43d 8d1b 983d 8871 163d 100b c0bc
00000080: d17d 883d 4cf1 a9bd 303e 0f3e 34d4 64bb
00000090: 3d44 ea3b 6b71 fa3a 5e48 89bd e24b ae3c
000000a0: c365 943d ed53 74bd b65a 9e3d b4cd 8e3d
000000b0: 5b2e 913d 6522 883d f039 873d dd0f ff3c
0.06806463 0.16450736 0.108985 -0.12780853 0.057178553 0.006409867 0.038958117 0.07853005
0.0473569 0.14054668 -0.16220677 0.10755593 0.03269479 0.06555078 -0.0151926745 -0.14689627
-0.07522723 -0.07422323 0.061695434 0.09579737 -0.029058384 0.075127915 -0.053377777 0.1168869
-0.049681142 -0.124218866 -0.07482115 0.059325412 0.11152177 0.0742713 0.036729366 -0.023442775
0.066646226 -0.08297977 0.13988566 -0.0034916522 0.007149248 0.0019107288 -0.06703256 0.021276418
0.07245972 -0.05965035 0.077321455 0.069728285 0.0708892 0.06647185 0.066028476 0.031135494

pre_layer.6.weight f4 [64, 48, 2, 2]
00000000: 6475 bc3d 7c0c fb3d 6f9d 8dbb bbf8 d63d
00000010: 51d9 88be 11c9 04bd 2986 c23e d37a b93e
00000020: 9cc9 9e3d f9bf 87bd 0ba8 f83d c633 3b3b
00000030: 9c5a 5b3c 4474 163e 4629 4abe 2775 83be
00000040: 476c 21be c019 943c 9098 24be beff 38be
00000050: 2f76 a7bd 7af3 9bbd eaff 9bbc 1efb 34be
00000060: e9ba 21bd eb75 b13e 00db 933c 427a 043e
00000070: 94e1 0f3e 3c13 70bd 10d4 a4bd b912 0c3e
00000080: 7ec5 26be c6af 51bd 2b78 b43b d962 4fbd
00000090: 5e8d e23c 7978 323d 11b0 11be dc4e 92bd
000000a0: 9cfc a23c f6ab 7abe 1585 2f3d c0b1 8cbd
000000b0: cd73 433d 9ab6 febb 9ea0 4a3d 2277 0e3e
000000c0: 9ed6 363c b115 b9bc e1f3 1fbd ce5a 48be
000000d0: 96c4 9cbd c286 95bd 624c 8d3c 1fde d4bd
000000e0: 479d f2bd 50d5 5dbe 2d36 65be 54b4 69bd
000000f0: b55c 9fbe c873 bfbd 2968 8dbd 88a7 aabe
00000100: 92ec 18bd 695d b6bd cf76 89be 9f55 0a3a
00000110: e5b7 22be ae53 9fbc 27e1 a53d 4ea4 0b3e
00000120: 06bd 773d 080e 4bbe 06af 813d 1d9c 823b
00000130: 3325 0d3d ceac da3b 9024 75be 3a16 c7bb
00000140: e596 ea3d e8b9 d43b 0ac2 d4bd e586 4fbd
00000150: 0c5c 613d 6793 953e 7271 1a3e 7dfb 423e
00000160: 6815 da3d 5dd8 b93d 9896 c83d 5ced 03be
00000170: 41db 2ebc 9e28 ea3d baed d03c eacd 963d
00000180: 2d0d 333d 8840 e5bd 136e 333d 2aa2 6ebe
00000190: 627d f3bd d80d c6bd 2505 20be cdb4 d03c
000001a0: f0cb 4cbe 9c8c 86be a8e2 e43c 5ed4 843c
000001b0: 587c 8b3b a92f 4a3c c042 5dbe 3f15 003c
000001c0: 9fd8 623d 5a02 c03b e774 a8bd 6854 773c
000001d0: 9bb8 02bc 81f8 05be 8d18 31bc b24d cebd
000001e0: 4399 033c 5503 e1bd 54a4 083e c985 cdbd
000001f0: 8d22 9cbc 122d a4bd 7d1b 20bd 817f f0bd
00000200: ce26 143c 4bd8 9a3c 1599 b2bd 9583 dc3d
00000210: 3039 debd 9224 59be c94b f4bc 134b 00be
00000220: 14b8 44be d172 a5be 5638 df3d 3e27 25be
00000230: 9167 f4bd 9653 51be 4ce4 553d a368 023d
00000240: 6819 03be 62d4 273e e326 10be 1bf0 a5bd
00000250: 5d44 3bbe 890a 063e 06ba 30be 05c4 cbbd
00000260: f8bf ce3c 341f 143d f810 efbc b279 90bd
00000270: d0ee cdbd fbf4 43bd fbe8 b33d 8e7d 62bd
00000280: 3bf1 d6bd 323c 7abd 0616 4ebe a705 c6bb
00000290: c2c7 133d 67ab 87bb 171d 3cbd f09f 1f3e
000002a0: dbbb febd 31bf 0f3e 7742 75be 718c 96bd
000002b0: f07b 08be ab8f a5bc 2874 a2be 0555 45bd
000002c0: 0d08 1bbe cad3 10be 5004 b7be 46c3 a13d
000002d0: 623b 09be be66 9cbd b10c 5ebd d4ee 893d
000002e0: 069c 633e 1b53 393e 8ea9 c43d bf5e f4bd
000002f0: 29d8 19be 1a48 aabc 405c 3f3c aea7 31be
00000300: 9dc8 013e f693 a33d 2dde 153e f2ed 2dbe
00000310: d843 1dbb fb15 4fbe 1b8a d7bd 69b4 3dbe
00000320: 5d31 4a3e 2e15 1fbc 56fa 7fbd ea83 fc3c
00000330: 5287 a9be 0660 4fbe 4a9f b0be cc3f 0fbe
00000340: f752 c43b 6dce dbbd 508c aebe 4cdd c6be
00000350: c295 0a3e ade3 f93c e9ba ef3d f02e 7b3e
00000360: fb14 a7bd 1bef 183d 850b 123d d1d5 1fbd
00000370: 634b 21be db62 6a3d b6e2 56bc a7e7 c9bd
00000380: f916 b3be 7a43 87be 0060 7ebe 4110 23be
00000390: 630a 24bd 0703 3a3e 06f4 c13d abb8 b8bd
000003a0: eb5b c93d c972 873e ae04 7d3d 845e f73c
000003b0: 3391 e73d ee72 773e 81a5 58be 9b5d debd
000003c0: 517c 00be 748a 1f3e 725e acbd ed30 793d
000003d0: 629c 9f3d 12fa a13c ed44 3ebd 6847 91bd
000003e0: e244 8fbe ec1d 91be b566 08be c4dd f7bb
000003f0: 6294 373d 03b5 633d 4128 f4bc 00bd 8bbc
0.09202078 0.122582406 -0.004321746 0.1049666 -0.267283 -0.032418314 0.3799298 0.3622652
0.07753298 -0.06628413 0.12141427 0.0028564795 0.013388302 0.1469279 -0.19742307 -0.25675318
-0.15763961 0.018078685 -0.16073823 -0.18066308 -0.081768386 -0.07614799 -0.019042928 -0.17673919
-0.039484892 0.34660277 0.018048763 0.12937263 0.14050895 -0.058612093 -0.0804826 0.13679017
-0.16286275 -0.05119302 0.005507489 -0.050631378 0.0276553 0.043571923 -0.1422732 -0.071439475
0.019895844 -0.2447966 0.042851526 -0.068698406 0.047717858 -0.0077732326 0.049469583 0.13912633
0.011159567 -0.022593351 -0.03905094 -0.19565889 -0.07654683 -0.07301094 0.017248336 -0.10393929
-0.118464045 -0.21663404 -0.22383948 -0.05705674 -0.31125417 -0.093482554 -0.069046326 -0.3333094
-0.037334986 -0.08904535 -0.26848456 0.0005277041 -0.15890463 -0.019449081 0.08099585 0.13636896
0.060483 -0.19829571 0.06332211 0.0039858953 0.034459304 0.006673432 -0.23939729 -0.0060756477
0.11454562 0.0064918883 -0.103885725 -0.050665755 0.055019423 0.29214022 0.15082338 0.19041248
0.10648614 0.09074471 0.097943485 -0.12883514 -0.010672391 0.11433528 0.025503982 0.07363494
0.043713737 -0.11193949 0.043806147 -0.23304048 -0.11889149 -0.09670609 -0.15626962 0.025476838
-0.19999671 -0.2627915 0.02794011 0.016214546 0.0042567663 0.012340465 -0.21607494 0.007817565
0.055382367 0.0058596553 -0.08225422 0.015095808 -0.007978584 -0.13083078 -0.010809076 -0.10073413
0.008032146 -0.10986964 0.13343936 -0.10035283 -0.019059444 -0.08016409 -0.039088715 -0.117430694
0.009042455 0.018901965 -0.08720604 0.10767285 -0.108507514 -0.21205357 -0.029821293 -0.12528639
-0.19210845 -0.3231416 0.10899417 -0.16128251 -0.11933816 -0.20442042 0.052219674 0.03183807
-0.1280266 0.16389611 -0.14077334 -0.08102437 -0.18287797 0.13089956 -0.17258462 -0.09949497
0.025238022 0.03616257 -0.029182896 -0.070544615 -0.100553155 -0.047841053 0.08784672 -0.05529552
-0.1049523 -0.061092563 -0.20125589 -0.0060431543 0.036079176 -0.004140306 -0.04592618 0.15588355
-0.12438174 0.14037777 -0.23951136 -0.07351006 -0.13328528 -0.020210108 -0.31729245 -0.048176784
-0.1513979 -0.14143291 -0.35745478 0.078985736 -0.13401559 -0.07636784 -0.054211322 0.06735006
0.22227487 0.18098108 0.096026525 -0.11932134 -0.15023865 -0.020786334 0.011679709 -0.17349121
0.12674184 0.07987206 0.14635535 -0.169853 -0.0023996737 -0.20223229 -0.105243884 -0.18525852
0.19745393 -0.0097096395 -0.0624946 0.03082462 -0.33111054 -0.20251474 -0.34496528 -0.1398918
0.0059913355 -0.10732732 -0.34091425 -0.3884071 0.1353369 0.030504072 0.11705572 0.24529624
-0.081582986 0.037337404 0.035655517 -0.03902227 -0.15751414 0.057223182 -0.013115576 -0.09858637
-0.34978464 -0.26418668 -0.24841309 -0.15924169 -0.040048968 0.18165217 0.09470372 -0.090195976
0.09831985 0.26454762 0.06177204 0.030196436 0.113069914 0.24164936 -0.21156885 -0.108576976
-0.12547423 0.1558016 -0.084164515 0.060837675 0.077934995 0.019772563 -0.04645245 -0.07093698
-0.2798224 -0.2834314 -0.1332043 -0.0075642783 0.044819243 0.055592548 -0.02980435 -0.017057896

pre_layer.6.bias f4 [64]
00000000: 44b6 1d3e 8a4a 7a3d c2b7 3b3b 785f 6e3c
00000010: 5667 30bd cd76 98bb 8c35 cabe 1e4b 2a3c
00000020: fe74 cd3d aa55 043e 2d8e 723d 5b0d f13d
00000030: 50bf b13c c0ca 813d 81ff 053e 4ebe 1fba
00000040: ff63 823e 372f b63d 7ff8 323d 619b e53d
00000050: c799 babc 9a00 2f3e 65b2 de3d 886c 4fbd
00000060: 8d2e 693e 8d9c 883e 8bf2 183e 5f58 5e3c
00000070: cf13 193e 2c80 213c cb9c f8bc 3f9d f03d
00000080: 718e f73d 08e3 a33d 91b2 2c3e ec82 693c
00000090: ef4f 373e f8f4 153d 458c 31bc fa6d 8dbd
000000a0: a686 91b9 8958 c93d fa0d 593e f936 3b3e
000000b0: 3c55 d23c 0917 e13c 6d61 423d 186e 0c3e
000000c0: bacb 383c 62f2 ed3d 9b9b 063e 3d25 a13d
000000d0: ca9e e93d c0eb b93d eab1 0c3e 22e6 c13c
000000e0: 031e 8b3d 9ddd 6d3e b520 d93d 538c 1a3e
000000f0: 0ac6 3d3e a0ab bcbb 80cd 7d3e 6cf7 a03d
0.1540156 0.061106242 0.0028643464 0.014549129 -0.0430673 -0.004652834 -0.39493978 0.010393886
0.1003208 0.12923303 0.05921762 0.117701255 0.02169767 0.063374996 0.13085748 -0.0006093726
0.25466916 0.08895724 0.043694016 0.11211277 -0.022778405 0.17090073 0.1087387 -0.050640613
0.22771664 0.2668194 0.14936273 0.013570874 0.14948963 0.009857219 -0.030348202 0.11748742
0.120877154 0.08002287 0.16864993 0.014252406 0.17901586 0.036610574 -0.0108366655 -0.06905742
-0.00027756876 0.0983134 0.21196738 0.18282689 0.025675409 0.027476804 0.047456194 0.13713872
0.011279041 0.116184965 0.13145296 0.07868431 0.1140724 0.09078169 0.13739744 0.023669306
0.06792834 0.2322907 0.106019415 0.15092592 0.18532577 -0.005757764 0.24785423 0.07859692

conv4.weight f4 [128, 256]
00000000: b82c 71bd 43b8 963d bc89 043d 9663 9d3d
00000010: 4618 01be 6154 01bd a6de a7bd 64be c5bd
00000020: 974c 0a3e f9fe 58be 24e4 e73d 76f1 da3d
00000030: 649d 2f3c 8202 2bbd 6dae 893e 767a 623d
00000040: 444a cebc 14bc 303e f307 30be 4dbc a3be
00000050: 1c94 603d 97da d0bd f91f 43be d7b7 84be
00000060: 1754 e53c b5b8 8e3d 98b0 903e 5c54 ce3d
00000070: 54b4 ac3d 3a07 9dbd 5af0 94bd 19ef 41be
00000080: 3172 5fbe 26f9 bebd f324 0cbe f4ac f63d
00000090: 998f 0ebe 161a 923d dbfa d5bd a380 a4bd
000000a0: 0bde cc3b 4733 7fbe 732c 013e ea7a eb3b
000000b0: 7f74 9cbe fef9 09be 96e6 29be 93eb a5bd
000000c0: b0c7 cfbd 120e 75bd fc3a 0a3d 757a 27be
000000d0: ef54 993c ad63 023e ca89 f8bd fd03 0cbd
000000e0: e0fc 23be c6b5 2c3c e0ab a9be c5aa 49be
000000f0: bd35 90bd 9b79 0abe 6b95 01be 143c 54bd
00000100: b2c9 debd 1557 02bd 580f d0bd 48fc 0fbe
00000110: ae85 b0bc d213 4ebc fc39 8fbd 1f2e e5bd
00000120: 77f2 d53c 2768 43be 8d41 f7bd 83d8 08be
00000130: 08cc 8f3d d8d0 9d3d bd29 2dbe bcb8 00be
00000140: a7ee b9bd 075b 1bbe adc2 cbbc 7d57 80be
00000150: a650 8a3c 19ba 8cbd 234a 93be 341c 13be
00000160: ed51 113d 3e37 6bbd cffd 193e 8277 243b
00000170: 8a75 2cbe 6785 cdbd 9063 2b3e fee9 30be
00000180: 54f3 b6bc f6f9 4bbe 22cc 2fbd 79d3 9abe
00000190: 4e6c 79be f7b9 943d b899 afbe 05e6 ae3d
000001a0: 0dc3 d1bd f14d 42bd 5c18 3abe 0538 8a3d
000001b0: 8081 9abe 577d 06be d0aa afbe 4dfb 7cbc
000001c0: fafe 46be acff 1a3e f77d 35ba b254 0fbe
000001d0: be07 3dbe 136c b5bd a32c 8a3d 344c e9bd
000001e0: 6a23 dd3d 2fe6 b6bd 7801 85bd 738b 883c
000001f0: 28ae fbbd 25a6 a33c 85fe a5bc 8f5b 883d
00000200: eb0e 8ebe 5315 7d3d ac38 193e 862f 82be
00000210: b16e 0fbe 84b2 13bd 04e5 d33c ab9c 0cbd
00000220: b30c b93d 5bf3 e1bd 21a9 e6bd 97ef abbd
00000230: 1033 b4bd d427 84bc 272c 67be 14fc 353d
00000240: 8f13 b03d 8558 8b3e a3f4 2abe c5ed 903c
00000250: 7aaf a83c 5684 98bd 4d4f 65be 91dd 203d
00000260: 582e 1bbe 722a 313e c99f e5bd 9d39 ccbd
00000270: 646f a5bd 0bd5 84bd dac1 243e ee61 b93b
00000280: e7fd 9dbd 0430 7cbe 54e2 63be 3793 2b3c
00000290: c55c 2abe 3663 8bbc 24f9 60bd 06bb bcbc
000002a0: 679a 323d 9eb2 d13d 7f0f 92bd a443 0abb
000002b0: 1ebc bdbd 5056 24be 4a05 ff3d bce2 fabd
000002c0: 426e f6bd 55c1 d6be e42e 6e3e 62cd 71bd
000002d0: 34ab 69be 734a 48be 21b5 203d 716a f6bd
000002e0: 059c a93c 90ea 58bd 52b8 7fbe f163 82bd
000002f0: 2145 11be 5ec3 17be 8cc8 863c 8ea7 753c
00000300: 3054 13bc 2562 e8bc 14e8 ae3c c44d d73d
00000310: fcf0 a2be 20c1 4bbe c087 10be 779b 65bd
00000320: d5f2 243d 350c 123d 4bc5 923e 1fa0 7f3e
00000330: fbde 4abe 4bdf a3be 6f58 153e b4f7 65be
00000340: 719f bf3c 0b8c 03be 0933 433e edac a8bd
00000350: cca2 a8bd 8e6a 5bbd 4ee3 5bba 2212 e73d
00000360: 3874 65bd 61ce 243e 9eca c1be a85d 35be
00000370: f42c f3bc 1084 e3bd 3ddd b4be e788 39be
00000380: c914 aabd 9a86 6f3e a2c0 56be 5bf7 8a3d
00000390: bb71 bd3c f7e0 493e 4a78 04be cda5 393e
000003a0: 5d2c f8bd 00f4 413d 8c22 41bd 3496 3bbd
000003b0: 5710 843d a783 333e 68a9 34be cc48 f83d
000003c0: e24f b4bd 73e9 dd3d 3b25 c7bd 01bf 243d
000003d0: d468 48bd a6b9 97bc aa4d 47be f1ee 643d
000003e0: 4ba4 cabd be3e 2abe 2b47 c23d 8ae0 bcbd
000003f0: 2c29 743b b9ec e83d 6629 54be 5a6c cd3d
-0.058880538 0.07359364 0.032357916 0.0768501 -0.12606916 -0.03157461 -0.08196764 -0.09655455
0.13505779 -0.21191014 0.11322811 0.10690586 0.010718677 -0.04175044 0.2689089 0.05529257
-0.025181897 0.17259246 -0.17190532 -0.319796 0.054828748 -0.10197943 -0.19055165 -0.2592151
0.027994199 0.06968824 0.2825973 0.10074684 0.08432832 -0.07667394 -0.07272406 -0.18938865
-0.21820904 -0.09324865 -0.1368597 0.12044707 -0.13921966 0.07133882 -0.104482375 -0.08032348
0.0062520555 -0.24921905 0.12614612 0.0071862834 -0.3055763 -0.1347427 -0.16591868 -0.08101573
-0.10145509 -0.05982787 0.033747658 -0.16355307 0.018717257 0.12733336 -0.12135656 -0.03418349
-0.16014433 0.010541385 -0.33138943 -0.1969405 -0.070415 -0.13522951 -0.12654655 -0.051815107
-0.10878314 -0.03182133 -0.101591766 -0.14061081 -0.021548118 -0.012577968 -0.069934815 -0.111904375
0.026116593 -0.190827 -0.1207305 -0.13363843 0.07021338 0.077058494 -0.16910453 -0.1257047
-0.090787224 -0.15171443 -0.024873102 -0.25066748 0.01688416 -0.06871433 -0.287675 -0.14366227
0.03547852 -0.05742573 0.15038227 0.0025095646 -0.16841713 -0.1003521 0.16737199 -0.17276761
-0.022332825 -0.19919571 -0.042919286 -0.30239466 -0.24357721 0.072620325 -0.34296966 0.085399665
-0.10242281 -0.047437612 -0.18173355 0.06748966 -0.30176926 -0.13133751 -0.34310007 -0.015440774
-0.19433203 0.15136594 -0.0006923372 -0.13997152 -0.18459985 -0.08858504 0.06746795 -0.11391488
0.1079777 -0.08930623 -0.06494421 0.016668057 -0.12289077 0.019976685 -0.020262966 0.066580884
-0.27745757 0.061787914 0.14963025 -0.25426883 -0.14007069 -0.036058918 0.02586604 -0.034329098
0.09035625 -0.110327445 -0.112627275 -0.083953075 -0.08798802 -0.016132273 -0.22575437 0.044429854
0.085974805 0.27215973 -0.16694884 0.017691502 0.020591486 -0.07447116 -0.22393532 0.039273802
-0.15154397 0.17301348 -0.11212117 -0.09971926 -0.08077887 -0.06485947 0.16089574 0.005657426
-0.07714444 -0.24627692 -0.22254306 0.0104721105 -0.16636951 -0.01701508 -0.0549251 -0.023038398
0.04360428 0.10239147 -0.07131862 -0.0021097446 -0.09264396 -0.1604855 0.12452181 -0.122502774
-0.12032749 -0.41944376 0.23260075 -0.05903376 -0.22819215 -0.1955965 0.039235238 -0.12032021
0.020704279 -0.05295807 -0.24972656 -0.063667186 -0.14186527 -0.1482062 0.01645305 0.014993561
-0.00899224 -0.028367111 0.021350898 0.105128795 -0.3182448 -0.1989789 -0.14114285 -0.056056466
0.040270645 0.035656173 0.28666148 0.24963425 -0.19811623 -0.32006297 0.14584516 -0.22457772
0.023391457 -0.12846391 0.19062437 -0.08236108 -0.08234176 -0.053568415 -0.0008388058 0.112827554
-0.056019038 0.16094352 -0.37849897 -0.17711508 -0.029684521 -0.11109173 -0.3532504 -0.1811863
-0.08304746 0.2339119 -0.20971921 0.067854606 0.02312552 0.19714724 -0.12936512 0.18129654
-0.121178366 0.047351837 -0.047152087 -0.04579754 0.06448429 0.1753069 -0.17642748 0.1212326
-0.08804299 0.108355425 -0.09723898 0.040221218 -0.048928097 -0.018521141 -0.1946322 0.055891935
-0.09894618 -0.16625497 0.094862305 -0.09222515 0.0037255986 0.11373276 -0.20718917 0.10030432

conv4.bias f4 [128]
00000000: 770f 6a3d 2d06 453e 1709 673e ac89 b23c
00000010: 4bc3 9dbc 1178 713e bdb8 1e3e 5605 9f3c
00000020: badd 893d 4436 8a3d deb5 8d3e a264 6e3d
00000030: 529f 7f3e 5d2b 473d 94ed c13d 9e30 64bb
00000040: 83e2 d73d 3712 683e 39bc 643d 591f 963d
00000050: 0e6e 253e e95d 023e 35ca 993d 8a84 b43d
00000060: fe58 4e3e 283b ab3d 12c8 523e 401f 303e
00000070: 260c 43bd 67bc 273e 6731 053e 247c 6f3e
00000080: 77ce e43d dbba f63d 10de d43d 9eb8 cf3d
00000090: 09ab 233d f9ca 7c3e 13ed c3bd f53d fa3d
000000a0: eab9 833e 3174 393e 9762 863e ca0e 113e
000000b0: aa7f 943e 208d d33d f240 e53d a619 223e
000000c0: 03bf 5d3e ae18 783e 62bb 343e 4f67 513e
000000d0: 80a4 833e 57b2 ca3d 57bd 533e 3ed6 433e
000000e0: a718 193e ba0c 783d ec88 863c fcc6 553e
000000f0: a751 0a3d 16d6 d23d 1126 383e 5627 9d3d
00000100: c8ff a93e 491e b93d 512f 833d 4a8b 373e
00000110: f773 c13d d4c7 e3bc 3705 873d 1e9a 843e
00000120: e661 09be 690f 39bc a2fb d53d 661e 313e
00000130: 68d0 aa3d 66a9 8f3d 923d 753d f7ea 253e
00000140: b6c3 393d 78f1 9fbd f485 7d3e 86ce 2f3e
00000150: 6032 593e 7e8c 203e cd90 0c3e 5f36 593d
00000160: 77a1 933d 9ad1 73bd fd70 343e 4041 b33d
00000170: 61a1 883d 30a9 fe3d 6d14 813e f83b 563e
00000180: 9a73 8d3e 976e 0a3e 978c ee3d f740 60bd
00000190: 9531 ef3d 0360 043e 310b f03d cc0b 7a3e
000001a0: d700 043e 90d9 953d bcbe ca3d a696 bc3d
000001b0: 6c87 f23d 375c d23c 85d0 853e f60d 623e
000001c0: 4c48 2f3d c2d3 c43c 16d0 313e 17ca 583d
000001d0: da56 ec3d d6f6 fb3d 915e a13d 5f24 ebbc
000001e0: df39 8f3e cd1f 893e 12c7 d03d 72ef bd3d
000001f0: 4384 cc3d 0ea7 9c3e 6c5a 8abc 8ea4 953e
0.057143655 0.19240637 0.22562061 0.021794163 -0.019258162 0.23580958 0.1550016 0.019411724
0.06731744 0.067486316 0.27677816 0.05820144 0.2496312 0.04862534 0.094691426 -0.0034819017
0.105412506 0.22663198 0.055843566 0.07330198 0.16155264 0.12731136 0.07509271 0.08814342
0.20151135 0.083608925 0.20584133 0.17199421 -0.047619008 0.16380464 0.13007127 0.233872
0.111721925 0.120473586 0.103939176 0.10142635 0.039958034 0.24686803 -0.09566703 0.122188486
0.2572778 0.1811073 0.26247093 0.14165798 0.2900365 0.10329652 0.11194028 0.15830097
0.21654896 0.24228165 0.17649606 0.20449565 0.2571144 0.09897297 0.20677696 0.19124696
0.1495081 0.060559012 0.016422711 0.20876688 0.033769276 0.1029474 0.17983271 0.07673518
0.33202958 0.090389796 0.06405509 0.17924228 0.09445947 -0.027805246 0.065927915 0.25898832
-0.13416252 -0.011295178 0.10448386 0.17296752 0.083405316 0.07014732 0.05987317 0.16202913
0.04535266 -0.078097284 0.2475813 0.17168626 0.21210623 0.15678594 0.13727112 0.053030368
0.07208531 -0.059526064 0.17621227 0.0875268 0.066714056 0.12434614 0.25210896 0.20921314
0.2762726 0.13518749 0.11647909 -0.054749455 0.11679379 0.1292725 0.117208846 0.24418563
0.12890945 0.073168874 0.09899661 0.092084214 0.11842236 0.025678737 0.2613565 0.22075638
0.042793557 0.024026755 0.17364535 0.052927103 0.11540003 0.123029396 0.07879365 -0.028703867
0.2797384 0.26782075 0.1019422 0.09274186 0.099861644 0.30596203 -0.01688882 0.29227108

conv5_1.weight f4 [1, 128]
00000000: cbb0 5e3e 269c 39be 7a3f 2cbe 4be5 6abc
00000010: 3e9a cebd 21c2 b3bd 3ce2 b43e 4d35 603e
00000020: 6f45 ef3e f126 973e 1d35 cfbd df17 84bc
00000030: b75e 25be e928 b53e df50 ffbd 83f5 b3bd
00000040: 68b8 b6bc 2300 f2bd c5de f2bb 94c5 bc3d
00000050: 8184 4a3e ab90 5bbe 4d54 573e 33b7 a63e
00000060: 2c91 303d 1128 ca3e 6ffd 9fbd ac19 4abd
00000070: ae53 29bc 57b5 92bd ddb7 623e 63e0 acbd
00000080: ffe8 bd3e 1074 143e faed b53e c521 0bbe
00000090: 40d9 87bd 7132 28be 9d04 fdbd 272e a23e
000000a0: d68b 15be 7879 c33d 26c0 51be 4764 9c3e
000000b0: d40f 40be e1dc 993e 5acb 113f 6870 153e
000000c0: 9a4b d3bd 916c 03be d00d a13e 49f9 93be
000000d0: b3cc 3abe 8495 a73e 08e3 52be e93b a5bd
000000e0: 228b b53e 521d 953d 4598 38bd 32d9 b6bd
000000f0: c2b8 853e a909 7ebd 4e77 d1bc cb81 873e
00000100: 5102 69be 5193 a13e e7c1 703e 6cbc 39be
00000110: 79f1 2b3f e5e2 d9bd 82ae 0dbd e3bb 083e
00000120: b792 48be 78b7 debd 5ddd 92bd b5df 08bd
00000130: 2926 523e 82a8 76be 6437 ab3e 8d05 bc3e
00000140: aaa2 61be 6cd9 15bc 3cae 42be 9601 f63e
00000150: 71db 66bd 77d4 b93e e0dd 673d 1c27 b43e
00000160: a1f1 153d e1b2 6dbb 3885 5c3e 21ee c13e
00000170: b7c6 a23e 4dc7 c23e b13e 74bd 66ed 34bd
00000180: ee3c 35be 6845 b03d 0fc4 e43e ebd7 823c
00000190: 2817 a4bd ff51 1a3e 8d17 b23e 5a7b dabd
000001a0: 88a8 bc3e 6ef3 d53e 1d63 023f 629e 863d
000001b0: 7326 b9bd 5d53 a53e d873 87bc 65ad efbd
000001c0: cc29 f9bd 7c28 97bd 6199 cb3e 9af1 973d
000001d0: cae7 52bd dd00 df3e 67e6 e03e 502e 81bd
000001e0: 6ab4 2fbd 77ba 35be e113 ea3e c588 86be
000001f0: e50e 2fbd 71cf f6bd 7559 1cbe 7db5 2cbe
0.21747129 -0.18125972 -0.1682109 -0.014336894 -0.10088013 -0.087772615 0.35328853 0.21895333
0.4673266 0.29521897 -0.101175524 -0.016124664 -0.16149412 0.35382774 -0.12466597 -0.08787062
-0.022304729 -0.11816432 -0.00741181 0.092173725 0.19777109 -0.21441905 0.21028252 0.32561645
0.043107197 0.39483693 -0.078120105 -0.04934089 -0.010334892 -0.07163494 0.22140451 -0.08441236
0.37091824 0.144974 0.35533124 -0.13587101 -0.06633234 -0.16425492 -0.123543955 0.31675836
-0.14604124 0.09544653 -0.20483455 0.30545256 -0.18756038 0.3005133 0.56950915 0.14593661
-0.10317154 -0.12834384 0.3145585 -0.28901127 -0.18242149 0.3273126 -0.20594418 -0.080680676
0.35457712 0.07280983 -0.04506709 -0.089281455 0.26117522 -0.06202093 -0.025569584 0.26466212
-0.2275479 0.31557706 0.23511468 -0.18138283 0.67165333 -0.1063898 -0.03459025 0.13352923
-0.19587217 -0.10874838 -0.07171128 -0.03341647 0.2052237 -0.24087718 0.33440697 0.36722985
-0.22034708 -0.009146076 -0.19011778 0.48048085 -0.05636162 0.3629491 0.05660808 0.35186088
0.03660739 -0.003626995 0.21535194 0.3787699 0.31792232 0.3804268 -0.0596301 -0.044171713
-0.17699024 0.08606988 0.4468083 0.015972098 -0.08012229 0.15070342 0.34783593 -0.10668059
0.3684733 0.41787285 0.50932485 0.06573178 -0.09040537 0.32290164 -0.01653473 -0.11702994
-0.12166175 -0.07380769 0.39765456 0.07419129 -0.051490583 0.43555346 0.43925783 -0.063076615
-0.042896666 -0.17746912 0.4571829 -0.26276222 -0.042738814 -0.12051285 -0.152685 -0.16866107

conv5_2.weight f4 [4, 128]
00000000: da82 013d 317f b23c 4fbf 8f3c 7cab 0d3c
00000010: 41f1 5c3b 5002 f63c 3efe 82bc 670c cb3c
00000020: 57f9 79bc c17b 5cbc a3d3 dbbc 91d7 1c3d
00000030: 0746 43bd 7fd5 9c3c 0b13 54bc ad20 11bd
00000040: 6445 febc cdb2 22bd c497 06bb ddc7 833c
00000050: ea56 f6bc e75c afbc 4cac 74bc 2ebf 28bc
00000060: 6866 38bc 5adf fc3b a4b4 e03a 8a47 04bd
00000070: 1bc0 c3bc 7984 a6bc cd7e 09bd 2b81 f9bb
00000080: 67c2 f1bc 8a83 993b b37e 823c 18f8 113b
00000090: 7d76 a0bb 6076 1bbd 3cb6 353d 8ab0 16bc
000000a0: 44f0 913d 388d b9bd 8f22 a8bb 16a4 0b3c
000000b0: 9672 8a3b 7607 a6bb cb52 7e3b 16b2 e53c
000000c0: 126c b9bc 5aa4 693d d2c8 653c a6c4 d7bc
000000d0: e474 3a3d fc7c 033a 3bc4 de3b 02e7 7fbb
000000e0: b071 063d 3ca5 123d cbbb 953d ff80 663c
000000f0: 6303 d9bc 4e98 923c 751f a73d 53b2 91b9
00000100: 2f38 33bc ad2e 0e3c d5dd 343c fba6 8dbc
00000110: 5037 763b c785 913c b3bc 94bb c4b5 813d
00000120: 18b2 933d a3bc 05bd 769a 29bc 11b1 d3bd
00000130: 3349 a7bc 355d 87ba 3b65 61bb 290a cfbb
00000140: fe90 4a3c 9b9f aa3c f4ef d43d 774c 4f3c
00000150: 6bc3 403d c3ae 0cbc ff3a 10bd 2cc2 79bc
00000160: a98a bebc 39ee acbc 8020 9cbb 0eac 77ba
00000170: b0dc 4fbb 095c 8d3c cc7b 16bd bf88 533d
00000180: 165b 46bb f971 883c 3bd3 183c 441b 11bc
00000190: f031 cf3c 238a 02bb 293a 073c 2f12 c7bc
000001a0: 7571 c2bb a4e1 0bbc 24ea ed3b 0240 da3c
000001b0: d405 9bbb b215 3a3c 9e97 38bc 4367 4bbc
000001c0: 181b 0b3c 5345 943c 64cb c33c d73b 27bd
000001d0: 7a03 fd3b adb0 12bc 7e91 5fbb 1f9d 753c
000001e0: 5d4e 62bd d82b 19bd c32e 04bb 7ae3 acbb
000001f0: a875 ec3c e815 9e3c b28c 98bb 0cdd 9bbd
00000200: 618c 22bd d1e8 5d3c 36bc d73c 6d82 093d
00000210: de84 9a3b af65 1c3d c910 26bd 50d9 993d
00000220: ea63 96bc 8f11 1cbd 11f7 403c 9126 803c
00000230: 50a9 8b3c 6924 39bd 5ff7 42bc 119f 25bd
00000240: fbce 3bbc 606d 7eba 415d 023d 00b5 8fbc
00000250: ff85 8e3d d1d7 2ebd aca2 48bd 30a7 11bc
00000260: 9f3f 10be 7106 773c bbae 3d3b 2afc 203d
00000270: 2069 d13c aef6 843c 2631 c63c 847c 11bb
00000280: 0b6a 513b 958c f9bb 9240 7b3c 0ebc 23bd
00000290: 70e2 6cbc 4f2a 76bd e69b a13d de8d f8bc
000002a0: 7310 453d b411 84bd eda1 9a3a bb38 723c
000002b0: 5afd 023d 99da a7bc 4158 2e3d 1059 823c
000002c0: c599 25bd 02cd a73d 04f2 db3c 4141 113d
000002d0: 3b9a 593d 47bb 9cbc 316e b7bc 586f 8bbc
000002e0: f4a5 893d abb2 04bd 1f17 abbc caa0 c53c
000002f0: 40ff 81bd 0e07 ebbc c149 a03c 40a1 fa3b
00000300: 757c 83bd 3ee9 8a3c 8347 e23c 8b2e 0a3d
00000310: ab61 873d a5c7 023b 1d3b de3c 1610 00bc
00000320: 8996 98bd 8bb1 a4bc 9ff0 38bb 0aa4 12bd
00000330: 2547 81bd 4957 dd3a cc90 173d 5807 99bc
00000340: 7727 323d 2039 8e3d 104d 21bd dd5a db3c
00000350: 4ba6 31bd 36ec adbb 8cb8 94bd b5bc b5bc
00000360: 187e 99bc f3a5 1cbd ce12 783c ef01 543c
00000370: ef5e 81bc 41f6 ae3c 0994 d63c 80bd 56bd
00000380: a00a 803c fc69 b93c d1c5 b83b ccd3 133d
00000390: 0329 c53c 60b9 4ebd 9257 8b3c 28dd 29bc
000003a0: 98c1 e6bc ccda 1abd 5871 0dbc 830b 98bb
000003b0: 6819 8ebb 55a6 b0bc 4f5f 1ebd 855f 41bc
000003c0: 2fa1 db3c 1de6 b33c 4128 eeba 38b6 acbd
000003d0: 4650 2ebd 43ac d73b 8416 a7bc 4222 3f3d
000003e0: 0f39 c6bd eee7 9f3d 0e09 4aba 22db 21bb
000003f0: dfba c9ba 8d3b 78bd 1f7c 333d d842 96bd
0.03161893 0.021789165 0.017547278 0.008646842 0.0033713134 0.0300304 -0.015990373 0.024786187
-0.015257201 -0.01345724 -0.026834315 0.038291518 -0.047674205 0.019144772 -0.012943993 -0.035431553
-0.031038947 -0.0397213 -0.0020537237 0.016086513 -0.03007074 -0.021406604 -0.014933657 -0.010299487
-0.011254884 0.0077170553 0.0017143679 -0.032294787 -0.023895314 -0.02032684 -0.033568192 -0.007614275
-0.029511644 0.00468487 0.015929556 0.002227312 -0.0048969374 -0.037954688 0.044363245 -0.009197364
0.07125905 -0.090601385 -0.005131073 0.008523008 0.0042250855 -0.0050668074 0.0038806673 0.02803902
-0.02263454 0.057041503 0.01402493 -0.026338886 0.04552163 0.00050158775 0.006798295 -0.0039047603
0.032823265 0.03580211 0.07311209 0.014068841 -0.026490873 0.01789489 0.08160297 -0.00027789417
-0.010938688 0.008678121 0.011039217 -0.017291537 0.003756959 0.017763985 -0.0045390963 0.06333497
0.07211703 -0.0326506 -0.010351768 -0.10336507 -0.020420646 -0.001032746 -0.0034392613 -0.00631835
0.01236367 0.020828059 0.1039733 0.012652508 0.047061365 -0.008586588 -0.035212513 -0.015244048
-0.023259478 -0.021109687 -0.0047646165 -0.00094479404 -0.0031717233 0.0172558 -0.036739156 0.051644083
-0.0030266694 0.016655909 0.009327705 -0.008856598 0.025292367 -0.0019918762 0.008253613 -0.024300663
-0.0059339353 -0.008537684 0.0072605778 0.02664185 -0.0047309194 0.011357712 -0.011266617 -0.012414756
0.008490346 0.018099463 0.023900695 -0.040828552 0.0077213617 -0.008953256 -0.003411382 0.014991074
-0.055250514 -0.03739533 -0.0020169474 -0.0052761408 0.028864697 0.019297555 -0.004655444 -0.07610521
-0.039684657 0.013544277 0.026334863 0.03357165 0.004715546 0.03818291 -0.04054335 0.07512152
-0.01835819 -0.038102683 0.011777655 0.01564339 0.017048508 -0.04520074 -0.011899798 -0.0404349
-0.011462922 -0.0009705629 0.031827215 -0.017542362 0.069591515 -0.042686287 -0.04898326 -0.008889958
-0.1408677 0.015077219 0.0028943259 0.039302982 0.025562823 0.016230907 0.024193358 -0.0022199461
0.0031954076 -0.0076156356 0.015335219 -0.039974265 -0.014458284 -0.060098942 0.078910634 -0.030341085
0.04811139 -0.06448689 0.0011797525 0.014784033 0.031979896 -0.020489978 0.042564634 0.015911609
-0.04042985 0.08193399 0.0268488 0.03546262 0.0531256 -0.01913227 -0.02239141 -0.017020866
0.06721106 -0.032396954 -0.020885048 0.024124522 -0.06347513 -0.028689887 0.019566419 0.007648617
-0.06420223 0.016956922 0.02762199 0.033735793 0.066104256 0.0019955423 0.027127797 -0.007816335
-0.07450587 -0.02010419 -0.0028219593 -0.03580097 -0.06312398 0.0016886975 0.037003323 -0.01868026
0.043494668 0.069444895 -0.039380133 0.026776725 -0.04337148 -0.0053076996 -0.07261762 -0.02218471
-0.018736884 -0.0382442 0.015141202 0.012939914 -0.015792338 0.021357657 0.026193636 -0.052426815
0.015630066 0.022633545 0.005638816 0.036090657 0.024067407 -0.050469756 0.01700953 -0.010367669
-0.028168485 -0.037806317 -0.00863298 -0.004640044 -0.0043365248 -0.021563688 -0.038665112 -0.011802559
0.026810257 0.021960313 -0.0018169956 -0.08433193 -0.042557023 0.0065818145 -0.020396478 0.04666353
-0.09678852 0.07807909 -0.0007707038 -0.0024697264 -0.0015390775 -0.060603667 0.043819543 -0.07336968

conv5_2.bias f4 [4]
00000000: b127 85bb fbc1 8abd 5089 c8bd 0950 6dbc
-0.0040635695 -0.0677528 -0.09791815 -0.014484414

conv5_3.weight f4 [10, 128]
00000000: a081 94bc a512 a03d 9e35 0fbe 520d 67bd
00000010: b108 4bbe 6bd6 3dbe 9d15 ebbd 9c3a f23d
00000020: c769 40bb 00bc 283d d657 21bc f6f2 c1bd
00000030: eca4 fcbc 8d0b 543e 0891 d03b b2c0 9a3c
00000040: 1bdc 2a3e 2e9a 11bd a6f0 ccbc d4d5 483e
00000050: 8ec1 273e d986 e43d 7b3b 723d 53e6 c9bd
00000060: 2ef0 27be e2f3 5b3d f45f ab3c bb42 473e
00000070: ca3e d03d 7e86 e33d d512 28be 3d67 08be
00000080: 44c0 1abd b4bb 113e 6e06 23be d3c1 81bd
00000090: acdd 133e fdb8 2b3c 7f0e 283e 418f 35be
000000a0: 6177 22be 8ed6 f03d 3fdb 3a3e e3a4 25be
000000b0: fd63 853b e28f 42be d58f 483e 35f6 473d
000000c0: 4fe5 0b3e 96c9 87bd b8ba 6cbd ced7 9dbd
000000d0: 226a e1bd 1318 f63d 810a c7bd e84e c3bd
000000e0: 47df 05be ae7a ffbc 7ca2 2ebe 78d9 c93d
000000f0: 9f63 a2bc 79c5 3a3d ac56 2bbb 8a57 603b
00000100: 1700 4ebe 30c4 33be 41e0 ecbd c28d 77bd
00000110: 946e 37bd d7e9 a2bd 79de 4abe 0117 273e
00000120: 0e35 233e 3cea f1bd 8c52 c23d 41a1 91bd
00000130: fef0 cdbd d781 513d ce41 afbd 5b9c 0a3c
00000140: ebf3 323d 05ed 0ebe 085b 3d3e 2525 4a3e
00000150: 08ef aebc f227 37be f72f 92bd 456b 113e
00000160: 1839 4dbe 6b0d 9fbc 2ad8 9a3d d997 88bd
00000170: 7fae 693d 1890 debc e48f 95bd fc39 6f3d
00000180: f3ee b4bd 6718 5d3c dffd 4e3d 13c5 2ebe
00000190: 2083 52be 2eb9 773d 871b 453e 8427 60bd
000001a0: 54bc 303e 8b27 1ebe f7e6 9c3b d48b 6f3d
000001b0: 586e edbd be74 43be 5185 83bd 521f e83c
000001c0: 0661 a2bd 416b f8bc ff3d 413e b166 e9bd
000001d0: e1e6 4fbe 274b f43d 3301 df3d dd32 923d
000001e0: 61c9 403d 2139 70bd b235 b8bc ce0b f13c
000001f0: 1ba8 9eba 441d 05be 85d2 babd 606d 183e
00000200: a349 f9bd a0ea 24be 62b4 6fbc 4c81 ef3d
00000210: c978 1fbe 0d8d a63d 810c 68bb a6d7 1d3e
00000220: e7c4 4dbd 6ef0 ebbd ef62 903a 58ab 4cbc
00000230: 0c97 313e 2d9f 6a3d ad2e 0fbe 5749 203d
00000240: 071f 1d3d ab1b d2bd 6ee1 4f3e 7f41 363c
00000250: d501 04be d415 493c 66ee 1cbe 68fc 5b3d
00000260: 0615 f23d 964a 81bd 46ab c33d 6d43 383e
00000270: 3afa 42be a0d4 0cbd 31c5 acbc 491a 423e
00000280: 080f f2bd 2c46 733d cf75 6a3c d641 523e
00000290: 4751 dcbd 5b90 a43d 6d21 a4bb b6c1 b33d
000002a0: bc58 41bc 692f 10be cd58 2f3d e7a8 d63d
000002b0: 7bac 15be 298a 333e e24c bc3d ee8f f8bd
000002c0: 0aee efbd e156 debd 7b55 cabd 7308 503e
000002d0: 4e97 cfbd 3e5c ea3d baa9 783d 703c 9ebd
000002e0: 270c 823d 5646 d53d 0928 393e 4953 f3bd
000002f0: 8854 35bd e527 4bbe cba0 f2bb 1efc 99bd
00000300: 4661 9a3d d170 bd3d 2e8c 9fbd bc45 4cbe
00000310: bffb b43d 6e4e cfbd 58ac 61bd 7f6d e33c
00000320: 8a56 0cbd f8aa 353e 6347 1abe cdaa a13d
00000330: b98d a2bd 8acd 783c 8d09 ed3d 016b 4abe
00000340: 39f4 4dbc b968 2d3e 7661 ddbc 2268 e83d
00000350: 8bb1 683c b810 01be 1ee2 e93d ba53 913d
00000360: 4a2e 78bc 3fb7 513c f4f5 e23d 2c1a 18be
00000370: 2c38 1e3e b159 3f3e 86c9 773d 6d3d 05bd
00000380: bfab 3cbe 62b5 21bd 008b 25be bb78 29be
00000390: 387c 44bd 8e67 493e fb75 373e aee2 06be
000003a0: a4b0 95bd f1ea a0ba 6700 51be 122f 5fbd
000003b0: 183f 433c d780 1ebe 8870 753d 0821 09bd
000003c0: 344a 54bd 1a1b 9fbc 1b4b 25be b78b 013e
000003d0: c886 d13d e208 25be 1310 edbd 4ec3 a23d
000003e0: 9692 713d bea1 09be 3ab0 893d 7848 f03d
000003f0: 25ba 47be 457b 073e 4aa0 443e 0cd1 193e
-0.018128216 0.07816056 -0.13985297 -0.056409188 -0.19827534 -0.18538825 -0.11478732 0.11827585
-0.0029359923 0.041194916 -0.009847602 -0.09470169 -0.03084036 0.20707531 0.0063649453 0.018890712
0.16685526 -0.035547428 -0.025017094 0.19612819 0.16382429 0.11158533 0.059138756 -0.09858384
-0.16400215 0.05369938 0.020919777 0.1945905 0.10168226 0.11109637 -0.16413434 -0.13320632
-0.037781015 0.1423176 -0.15920421 -0.06335797 0.1444003 0.010481116 0.1641178 -0.17730428
-0.15865852 0.11759673 0.18247698 -0.1617618 0.0040707574 -0.190002 0.19586118 0.048818786
0.13661693 -0.06630246 -0.057795256 -0.07707177 -0.11006571 0.120163105 -0.097188 -0.095365345
-0.13073455 -0.031186428 -0.1705417 0.09855932 -0.019822894 0.04559848 -0.002614419 0.0034231865
-0.20117222 -0.17555308 -0.115662105 -0.060437925 -0.04478319 -0.07954758 -0.19811429 0.16317369
0.15938208 -0.11812255 0.09488401 -0.07110835 -0.10055731 0.051149216 -0.08557473 0.00846013
0.04368965 -0.13957603 0.18491757 0.19740732 -0.021354213 -0.17886332 -0.07138055 0.14201076
-0.20041311 -0.019415578 0.07560761 -0.06669588 0.057051178 -0.027168319 -0.073028356 0.058404908
-0.088346384 0.0134945875 0.05053508 -0.17067365 -0.20557833 0.060479335 0.19248782 -0.054725185
0.17259341 -0.15444772 0.0047882753 0.05848296 -0.11593312 -0.19087502 -0.064219125 0.028335247
-0.07928662 -0.03032458 0.18871306 -0.1139654 -0.20302917 0.11928397 0.108889006 0.07138608
0.04706705 -0.058648232 -0.022486541 0.029424574 -0.0012104543 -0.12999445 -0.09122185 0.14885473
-0.12172248 -0.16105127 -0.014630409 0.11694583 -0.1557342 0.08132372 -0.0035407844 0.15414295
-0.05023661 -0.11520468 0.0011015813 -0.012492023 0.17342776 0.057280708 -0.13982649 0.039132442
0.038359668 -0.102591835 0.20300838 0.011124014 -0.12891324 0.012273271 -0.15325317 0.05370751
0.11820416 -0.06313054 0.09554152 0.17994471 -0.19040766 -0.034382463 -0.021090122 0.1895534
-0.11819273 0.059393093 0.014310314 0.20532927 -0.1075769 0.08035346 -0.0050088675 0.08777182
-0.011800941 -0.14080586 0.042809296 0.10481434 -0.14616577 0.17533173 0.09194352 -0.121368274
-0.11715324 -0.108564146 -0.09879585 0.20315723 -0.10136281 0.11443375 0.06070874 -0.07726371
0.06349974 0.10413806 0.18081678 -0.1188112 -0.04427007 -0.19839437 -0.007404422 -0.07518791
0.07538085 0.09250034 -0.07790409 -0.19948477 0.08837079 -0.10122381 -0.055096 0.027762173
-0.034262218 0.17741 -0.15066294 0.07893906 -0.07937188 0.015185723 0.11574087 -0.19767381
-0.012570434 0.1693448 -0.027024012 0.11347987 0.014202486 -0.12604034 0.114200816 0.07096048
-0.015147755 0.012800037 0.11082068 -0.14853734 0.15451115 0.18686558 0.060494922 -0.032529283
-0.18424891 -0.03947962 -0.16166306 -0.16549961 -0.047970027 0.19668409 0.179161 -0.13172409
-0.07309082 -0.0012277049 -0.2041031 -0.05448825 0.011916898 -0.15478836 0.05992177 -0.033478767
-0.051828578 -0.019422103 -0.16141932 0.12650953 0.102307856 -0.1611667 -0.115753315 0.07947408
0.058977686 -0.13440606 0.06723066 0.11732572 -0.19504602 0.13230617 0.1920177 0.15021151

conv5_3.bias f4 [10]
00000000: cdcc cc3d cdcc cc3d cdcc cc3d cdcc cc3d
00000010: cdcc cc3d cdcc cc3d cdcc cc3d cdcc cc3d
00000020: cdcc cc3d cdcc cc3d
0.1 0.1 0.1 0.1 0.1 0.1 0.1 0.1
0.1 0.1
